<net name="deploy_ssd" batch="1" version="2">
  <layers>
    <layer id="1" name="data" type="Input" precision="FP16">
      <output>
        <port id="1">
          <dim>1</dim>
          <dim>3</dim>
          <dim>300</dim>
          <dim>300</dim>
        </port>
      </output>
    </layer>
    <layer id="2" name="ScaleShift_bn_data" type="ScaleShift" precision="FP16">
      <input>
        <port id="3">
          <dim>1</dim>
          <dim>3</dim>
          <dim>300</dim>
          <dim>300</dim>
        </port>
      </input>
      <output>
        <port id="2">
          <dim>1</dim>
          <dim>3</dim>
          <dim>300</dim>
          <dim>300</dim>
        </port>
      </output>
      <weights offset="0" size="6"/>
      <biases offset="6" size="6"/>
    </layer>
    <layer id="3" name="Convolution_conv0" type="Convolution" precision="FP16">
      <convolution_data stride-y="2" output="64" pad-y="3" kernel-x="7" group="1" kernel-y="7" stride-x="2" pad-x="3"/>
      <input>
        <port id="5">
          <dim>1</dim>
          <dim>3</dim>
          <dim>300</dim>
          <dim>300</dim>
        </port>
      </input>
      <output>
        <port id="4">
          <dim>1</dim>
          <dim>64</dim>
          <dim>150</dim>
          <dim>150</dim>
        </port>
      </output>
      <weights offset="12" size="18816"/>
      <biases offset="18828" size="128"/>
    </layer>
    <layer id="4" name="ReLU_relu0" type="ReLU" precision="FP16">
      <input>
        <port id="7">
          <dim>1</dim>
          <dim>64</dim>
          <dim>150</dim>
          <dim>150</dim>
        </port>
      </input>
      <output>
        <port id="6">
          <dim>1</dim>
          <dim>64</dim>
          <dim>150</dim>
          <dim>150</dim>
        </port>
      </output>
    </layer>
    <layer id="5" name="Pooling_pooling0" type="Pooling" precision="FP16">
      <pooling_data stride-y="2" rounding-type="ceil" pad-y="1" kernel-x="3" kernel-y="3" pool-method="max" stride-x="2" pad-x="1"/>
      <input>
        <port id="9">
          <dim>1</dim>
          <dim>64</dim>
          <dim>150</dim>
          <dim>150</dim>
        </port>
      </input>
      <output>
        <port id="8">
          <dim>1</dim>
          <dim>64</dim>
          <dim>75</dim>
          <dim>75</dim>
        </port>
      </output>
    </layer>
    <layer id="6" name="ScaleShift_stage1_unit1_bn1" type="ScaleShift" precision="FP16">
      <input>
        <port id="11">
          <dim>1</dim>
          <dim>64</dim>
          <dim>75</dim>
          <dim>75</dim>
        </port>
      </input>
      <output>
        <port id="10">
          <dim>1</dim>
          <dim>64</dim>
          <dim>75</dim>
          <dim>75</dim>
        </port>
      </output>
      <weights offset="18956" size="128"/>
      <biases offset="19084" size="128"/>
    </layer>
    <layer id="7" name="ReLU_stage1_unit1_relu1" type="ReLU" precision="FP16">
      <input>
        <port id="13">
          <dim>1</dim>
          <dim>64</dim>
          <dim>75</dim>
          <dim>75</dim>
        </port>
      </input>
      <output>
        <port id="12">
          <dim>1</dim>
          <dim>64</dim>
          <dim>75</dim>
          <dim>75</dim>
        </port>
      </output>
    </layer>
    <layer id="8" name="Convolution_stage1_unit1_conv1" type="Convolution" precision="FP16">
      <convolution_data stride-y="1" output="64" pad-y="0" kernel-x="1" group="1" kernel-y="1" stride-x="1" pad-x="0"/>
      <input>
        <port id="15">
          <dim>1</dim>
          <dim>64</dim>
          <dim>75</dim>
          <dim>75</dim>
        </port>
      </input>
      <output>
        <port id="14">
          <dim>1</dim>
          <dim>64</dim>
          <dim>75</dim>
          <dim>75</dim>
        </port>
      </output>
      <weights offset="19212" size="8192"/>
      <biases offset="27404" size="128"/>
    </layer>
    <layer id="9" name="ReLU_stage1_unit1_relu2" type="ReLU" precision="FP16">
      <input>
        <port id="17">
          <dim>1</dim>
          <dim>64</dim>
          <dim>75</dim>
          <dim>75</dim>
        </port>
      </input>
      <output>
        <port id="16">
          <dim>1</dim>
          <dim>64</dim>
          <dim>75</dim>
          <dim>75</dim>
        </port>
      </output>
    </layer>
    <layer id="10" name="Convolution_stage1_unit1_conv2" type="Convolution" precision="FP16">
      <convolution_data stride-y="1" output="64" pad-y="1" kernel-x="3" group="1" kernel-y="3" stride-x="1" pad-x="1"/>
      <input>
        <port id="19">
          <dim>1</dim>
          <dim>64</dim>
          <dim>75</dim>
          <dim>75</dim>
        </port>
      </input>
      <output>
        <port id="18">
          <dim>1</dim>
          <dim>64</dim>
          <dim>75</dim>
          <dim>75</dim>
        </port>
      </output>
      <weights offset="27532" size="73728"/>
      <biases offset="101260" size="128"/>
    </layer>
    <layer id="11" name="ReLU_stage1_unit1_relu3" type="ReLU" precision="FP16">
      <input>
        <port id="21">
          <dim>1</dim>
          <dim>64</dim>
          <dim>75</dim>
          <dim>75</dim>
        </port>
      </input>
      <output>
        <port id="20">
          <dim>1</dim>
          <dim>64</dim>
          <dim>75</dim>
          <dim>75</dim>
        </port>
      </output>
    </layer>
    <layer id="12" name="Convolution_stage1_unit1_conv3" type="Convolution" precision="FP16">
      <convolution_data stride-y="1" output="256" pad-y="0" kernel-x="1" group="1" kernel-y="1" stride-x="1" pad-x="0"/>
      <input>
        <port id="23">
          <dim>1</dim>
          <dim>64</dim>
          <dim>75</dim>
          <dim>75</dim>
        </port>
      </input>
      <output>
        <port id="22">
          <dim>1</dim>
          <dim>256</dim>
          <dim>75</dim>
          <dim>75</dim>
        </port>
      </output>
      <weights offset="101388" size="32768"/>
    </layer>
    <layer id="13" name="Convolution_stage1_unit1_sc" type="Convolution" precision="FP16">
      <convolution_data stride-y="1" output="256" pad-y="0" kernel-x="1" group="1" kernel-y="1" stride-x="1" pad-x="0"/>
      <input>
        <port id="25">
          <dim>1</dim>
          <dim>64</dim>
          <dim>75</dim>
          <dim>75</dim>
        </port>
      </input>
      <output>
        <port id="24">
          <dim>1</dim>
          <dim>256</dim>
          <dim>75</dim>
          <dim>75</dim>
        </port>
      </output>
      <weights offset="134156" size="32768"/>
    </layer>
    <layer id="14" name="Eltwise__plus0" type="Eltwise" precision="FP16">
      <elementwise_data operation=""/>
      <input>
        <port id="27">
          <dim>1</dim>
          <dim>256</dim>
          <dim>75</dim>
          <dim>75</dim>
        </port>
        <port id="28">
          <dim>1</dim>
          <dim>256</dim>
          <dim>75</dim>
          <dim>75</dim>
        </port>
      </input>
      <output>
        <port id="26">
          <dim>1</dim>
          <dim>256</dim>
          <dim>75</dim>
          <dim>75</dim>
        </port>
      </output>
    </layer>
    <layer id="15" name="ScaleShift_stage1_unit2_bn1" type="ScaleShift" precision="FP16">
      <input>
        <port id="30">
          <dim>1</dim>
          <dim>256</dim>
          <dim>75</dim>
          <dim>75</dim>
        </port>
      </input>
      <output>
        <port id="29">
          <dim>1</dim>
          <dim>256</dim>
          <dim>75</dim>
          <dim>75</dim>
        </port>
      </output>
      <weights offset="166924" size="512"/>
      <biases offset="167436" size="512"/>
    </layer>
    <layer id="16" name="ReLU_stage1_unit2_relu1" type="ReLU" precision="FP16">
      <input>
        <port id="32">
          <dim>1</dim>
          <dim>256</dim>
          <dim>75</dim>
          <dim>75</dim>
        </port>
      </input>
      <output>
        <port id="31">
          <dim>1</dim>
          <dim>256</dim>
          <dim>75</dim>
          <dim>75</dim>
        </port>
      </output>
    </layer>
    <layer id="17" name="Convolution_stage1_unit2_conv1" type="Convolution" precision="FP16">
      <convolution_data stride-y="1" output="64" pad-y="0" kernel-x="1" group="1" kernel-y="1" stride-x="1" pad-x="0"/>
      <input>
        <port id="34">
          <dim>1</dim>
          <dim>256</dim>
          <dim>75</dim>
          <dim>75</dim>
        </port>
      </input>
      <output>
        <port id="33">
          <dim>1</dim>
          <dim>64</dim>
          <dim>75</dim>
          <dim>75</dim>
        </port>
      </output>
      <weights offset="167948" size="32768"/>
      <biases offset="200716" size="128"/>
    </layer>
    <layer id="18" name="ReLU_stage1_unit2_relu2" type="ReLU" precision="FP16">
      <input>
        <port id="36">
          <dim>1</dim>
          <dim>64</dim>
          <dim>75</dim>
          <dim>75</dim>
        </port>
      </input>
      <output>
        <port id="35">
          <dim>1</dim>
          <dim>64</dim>
          <dim>75</dim>
          <dim>75</dim>
        </port>
      </output>
    </layer>
    <layer id="19" name="Convolution_stage1_unit2_conv2" type="Convolution" precision="FP16">
      <convolution_data stride-y="1" output="64" pad-y="1" kernel-x="3" group="1" kernel-y="3" stride-x="1" pad-x="1"/>
      <input>
        <port id="38">
          <dim>1</dim>
          <dim>64</dim>
          <dim>75</dim>
          <dim>75</dim>
        </port>
      </input>
      <output>
        <port id="37">
          <dim>1</dim>
          <dim>64</dim>
          <dim>75</dim>
          <dim>75</dim>
        </port>
      </output>
      <weights offset="200844" size="73728"/>
      <biases offset="274572" size="128"/>
    </layer>
    <layer id="20" name="ReLU_stage1_unit2_relu3" type="ReLU" precision="FP16">
      <input>
        <port id="40">
          <dim>1</dim>
          <dim>64</dim>
          <dim>75</dim>
          <dim>75</dim>
        </port>
      </input>
      <output>
        <port id="39">
          <dim>1</dim>
          <dim>64</dim>
          <dim>75</dim>
          <dim>75</dim>
        </port>
      </output>
    </layer>
    <layer id="21" name="Convolution_stage1_unit2_conv3" type="Convolution" precision="FP16">
      <convolution_data stride-y="1" output="256" pad-y="0" kernel-x="1" group="1" kernel-y="1" stride-x="1" pad-x="0"/>
      <input>
        <port id="42">
          <dim>1</dim>
          <dim>64</dim>
          <dim>75</dim>
          <dim>75</dim>
        </port>
      </input>
      <output>
        <port id="41">
          <dim>1</dim>
          <dim>256</dim>
          <dim>75</dim>
          <dim>75</dim>
        </port>
      </output>
      <weights offset="274700" size="32768"/>
    </layer>
    <layer id="22" name="Eltwise__plus1" type="Eltwise" precision="FP16">
      <elementwise_data operation=""/>
      <input>
        <port id="44">
          <dim>1</dim>
          <dim>256</dim>
          <dim>75</dim>
          <dim>75</dim>
        </port>
        <port id="45">
          <dim>1</dim>
          <dim>256</dim>
          <dim>75</dim>
          <dim>75</dim>
        </port>
      </input>
      <output>
        <port id="43">
          <dim>1</dim>
          <dim>256</dim>
          <dim>75</dim>
          <dim>75</dim>
        </port>
      </output>
    </layer>
    <layer id="23" name="ScaleShift_stage1_unit3_bn1" type="ScaleShift" precision="FP16">
      <input>
        <port id="47">
          <dim>1</dim>
          <dim>256</dim>
          <dim>75</dim>
          <dim>75</dim>
        </port>
      </input>
      <output>
        <port id="46">
          <dim>1</dim>
          <dim>256</dim>
          <dim>75</dim>
          <dim>75</dim>
        </port>
      </output>
      <weights offset="307468" size="512"/>
      <biases offset="307980" size="512"/>
    </layer>
    <layer id="24" name="ReLU_stage1_unit3_relu1" type="ReLU" precision="FP16">
      <input>
        <port id="49">
          <dim>1</dim>
          <dim>256</dim>
          <dim>75</dim>
          <dim>75</dim>
        </port>
      </input>
      <output>
        <port id="48">
          <dim>1</dim>
          <dim>256</dim>
          <dim>75</dim>
          <dim>75</dim>
        </port>
      </output>
    </layer>
    <layer id="25" name="Convolution_stage1_unit3_conv1" type="Convolution" precision="FP16">
      <convolution_data stride-y="1" output="64" pad-y="0" kernel-x="1" group="1" kernel-y="1" stride-x="1" pad-x="0"/>
      <input>
        <port id="51">
          <dim>1</dim>
          <dim>256</dim>
          <dim>75</dim>
          <dim>75</dim>
        </port>
      </input>
      <output>
        <port id="50">
          <dim>1</dim>
          <dim>64</dim>
          <dim>75</dim>
          <dim>75</dim>
        </port>
      </output>
      <weights offset="308492" size="32768"/>
      <biases offset="341260" size="128"/>
    </layer>
    <layer id="26" name="ReLU_stage1_unit3_relu2" type="ReLU" precision="FP16">
      <input>
        <port id="53">
          <dim>1</dim>
          <dim>64</dim>
          <dim>75</dim>
          <dim>75</dim>
        </port>
      </input>
      <output>
        <port id="52">
          <dim>1</dim>
          <dim>64</dim>
          <dim>75</dim>
          <dim>75</dim>
        </port>
      </output>
    </layer>
    <layer id="27" name="Convolution_stage1_unit3_conv2" type="Convolution" precision="FP16">
      <convolution_data stride-y="1" output="64" pad-y="1" kernel-x="3" group="1" kernel-y="3" stride-x="1" pad-x="1"/>
      <input>
        <port id="55">
          <dim>1</dim>
          <dim>64</dim>
          <dim>75</dim>
          <dim>75</dim>
        </port>
      </input>
      <output>
        <port id="54">
          <dim>1</dim>
          <dim>64</dim>
          <dim>75</dim>
          <dim>75</dim>
        </port>
      </output>
      <weights offset="341388" size="73728"/>
      <biases offset="415116" size="128"/>
    </layer>
    <layer id="28" name="ReLU_stage1_unit3_relu3" type="ReLU" precision="FP16">
      <input>
        <port id="57">
          <dim>1</dim>
          <dim>64</dim>
          <dim>75</dim>
          <dim>75</dim>
        </port>
      </input>
      <output>
        <port id="56">
          <dim>1</dim>
          <dim>64</dim>
          <dim>75</dim>
          <dim>75</dim>
        </port>
      </output>
    </layer>
    <layer id="29" name="Convolution_stage1_unit3_conv3" type="Convolution" precision="FP16">
      <convolution_data stride-y="1" output="256" pad-y="0" kernel-x="1" group="1" kernel-y="1" stride-x="1" pad-x="0"/>
      <input>
        <port id="59">
          <dim>1</dim>
          <dim>64</dim>
          <dim>75</dim>
          <dim>75</dim>
        </port>
      </input>
      <output>
        <port id="58">
          <dim>1</dim>
          <dim>256</dim>
          <dim>75</dim>
          <dim>75</dim>
        </port>
      </output>
      <weights offset="415244" size="32768"/>
    </layer>
    <layer id="30" name="Eltwise__plus2" type="Eltwise" precision="FP16">
      <elementwise_data operation=""/>
      <input>
        <port id="61">
          <dim>1</dim>
          <dim>256</dim>
          <dim>75</dim>
          <dim>75</dim>
        </port>
        <port id="62">
          <dim>1</dim>
          <dim>256</dim>
          <dim>75</dim>
          <dim>75</dim>
        </port>
      </input>
      <output>
        <port id="60">
          <dim>1</dim>
          <dim>256</dim>
          <dim>75</dim>
          <dim>75</dim>
        </port>
      </output>
    </layer>
    <layer id="31" name="ScaleShift_stage2_unit1_bn1" type="ScaleShift" precision="FP16">
      <input>
        <port id="64">
          <dim>1</dim>
          <dim>256</dim>
          <dim>75</dim>
          <dim>75</dim>
        </port>
      </input>
      <output>
        <port id="63">
          <dim>1</dim>
          <dim>256</dim>
          <dim>75</dim>
          <dim>75</dim>
        </port>
      </output>
      <weights offset="448012" size="512"/>
      <biases offset="448524" size="512"/>
    </layer>
    <layer id="32" name="ReLU_stage2_unit1_relu1" type="ReLU" precision="FP16">
      <input>
        <port id="66">
          <dim>1</dim>
          <dim>256</dim>
          <dim>75</dim>
          <dim>75</dim>
        </port>
      </input>
      <output>
        <port id="65">
          <dim>1</dim>
          <dim>256</dim>
          <dim>75</dim>
          <dim>75</dim>
        </port>
      </output>
    </layer>
    <layer id="33" name="Convolution_stage2_unit1_conv1" type="Convolution" precision="FP16">
      <convolution_data stride-y="1" output="128" pad-y="0" kernel-x="1" group="1" kernel-y="1" stride-x="1" pad-x="0"/>
      <input>
        <port id="68">
          <dim>1</dim>
          <dim>256</dim>
          <dim>75</dim>
          <dim>75</dim>
        </port>
      </input>
      <output>
        <port id="67">
          <dim>1</dim>
          <dim>128</dim>
          <dim>75</dim>
          <dim>75</dim>
        </port>
      </output>
      <weights offset="449036" size="65536"/>
      <biases offset="514572" size="256"/>
    </layer>
    <layer id="34" name="ReLU_stage2_unit1_relu2" type="ReLU" precision="FP16">
      <input>
        <port id="70">
          <dim>1</dim>
          <dim>128</dim>
          <dim>75</dim>
          <dim>75</dim>
        </port>
      </input>
      <output>
        <port id="69">
          <dim>1</dim>
          <dim>128</dim>
          <dim>75</dim>
          <dim>75</dim>
        </port>
      </output>
    </layer>
    <layer id="35" name="Convolution_stage2_unit1_conv2" type="Convolution" precision="FP16">
      <convolution_data stride-y="2" output="128" pad-y="1" kernel-x="3" group="1" kernel-y="3" stride-x="2" pad-x="1"/>
      <input>
        <port id="72">
          <dim>1</dim>
          <dim>128</dim>
          <dim>75</dim>
          <dim>75</dim>
        </port>
      </input>
      <output>
        <port id="71">
          <dim>1</dim>
          <dim>128</dim>
          <dim>38</dim>
          <dim>38</dim>
        </port>
      </output>
      <weights offset="514828" size="294912"/>
      <biases offset="809740" size="256"/>
    </layer>
    <layer id="36" name="ReLU_stage2_unit1_relu3" type="ReLU" precision="FP16">
      <input>
        <port id="74">
          <dim>1</dim>
          <dim>128</dim>
          <dim>38</dim>
          <dim>38</dim>
        </port>
      </input>
      <output>
        <port id="73">
          <dim>1</dim>
          <dim>128</dim>
          <dim>38</dim>
          <dim>38</dim>
        </port>
      </output>
    </layer>
    <layer id="37" name="Convolution_stage2_unit1_conv3" type="Convolution" precision="FP16">
      <convolution_data stride-y="1" output="512" pad-y="0" kernel-x="1" group="1" kernel-y="1" stride-x="1" pad-x="0"/>
      <input>
        <port id="76">
          <dim>1</dim>
          <dim>128</dim>
          <dim>38</dim>
          <dim>38</dim>
        </port>
      </input>
      <output>
        <port id="75">
          <dim>1</dim>
          <dim>512</dim>
          <dim>38</dim>
          <dim>38</dim>
        </port>
      </output>
      <weights offset="809996" size="131072"/>
    </layer>
    <layer id="38" name="Convolution_stage2_unit1_sc" type="Convolution" precision="FP16">
      <convolution_data stride-y="2" output="512" pad-y="0" kernel-x="1" group="1" kernel-y="1" stride-x="2" pad-x="0"/>
      <input>
        <port id="78">
          <dim>1</dim>
          <dim>256</dim>
          <dim>75</dim>
          <dim>75</dim>
        </port>
      </input>
      <output>
        <port id="77">
          <dim>1</dim>
          <dim>512</dim>
          <dim>38</dim>
          <dim>38</dim>
        </port>
      </output>
      <weights offset="941068" size="262144"/>
    </layer>
    <layer id="39" name="Eltwise__plus3" type="Eltwise" precision="FP16">
      <elementwise_data operation=""/>
      <input>
        <port id="80">
          <dim>1</dim>
          <dim>512</dim>
          <dim>38</dim>
          <dim>38</dim>
        </port>
        <port id="81">
          <dim>1</dim>
          <dim>512</dim>
          <dim>38</dim>
          <dim>38</dim>
        </port>
      </input>
      <output>
        <port id="79">
          <dim>1</dim>
          <dim>512</dim>
          <dim>38</dim>
          <dim>38</dim>
        </port>
      </output>
    </layer>
    <layer id="40" name="ScaleShift_stage2_unit2_bn1" type="ScaleShift" precision="FP16">
      <input>
        <port id="83">
          <dim>1</dim>
          <dim>512</dim>
          <dim>38</dim>
          <dim>38</dim>
        </port>
      </input>
      <output>
        <port id="82">
          <dim>1</dim>
          <dim>512</dim>
          <dim>38</dim>
          <dim>38</dim>
        </port>
      </output>
      <weights offset="1203212" size="1024"/>
      <biases offset="1204236" size="1024"/>
    </layer>
    <layer id="41" name="ReLU_stage2_unit2_relu1" type="ReLU" precision="FP16">
      <input>
        <port id="85">
          <dim>1</dim>
          <dim>512</dim>
          <dim>38</dim>
          <dim>38</dim>
        </port>
      </input>
      <output>
        <port id="84">
          <dim>1</dim>
          <dim>512</dim>
          <dim>38</dim>
          <dim>38</dim>
        </port>
      </output>
    </layer>
    <layer id="42" name="Convolution_stage2_unit2_conv1" type="Convolution" precision="FP16">
      <convolution_data stride-y="1" output="128" pad-y="0" kernel-x="1" group="1" kernel-y="1" stride-x="1" pad-x="0"/>
      <input>
        <port id="87">
          <dim>1</dim>
          <dim>512</dim>
          <dim>38</dim>
          <dim>38</dim>
        </port>
      </input>
      <output>
        <port id="86">
          <dim>1</dim>
          <dim>128</dim>
          <dim>38</dim>
          <dim>38</dim>
        </port>
      </output>
      <weights offset="1205260" size="131072"/>
      <biases offset="1336332" size="256"/>
    </layer>
    <layer id="43" name="ReLU_stage2_unit2_relu2" type="ReLU" precision="FP16">
      <input>
        <port id="89">
          <dim>1</dim>
          <dim>128</dim>
          <dim>38</dim>
          <dim>38</dim>
        </port>
      </input>
      <output>
        <port id="88">
          <dim>1</dim>
          <dim>128</dim>
          <dim>38</dim>
          <dim>38</dim>
        </port>
      </output>
    </layer>
    <layer id="44" name="Convolution_stage2_unit2_conv2" type="Convolution" precision="FP16">
      <convolution_data stride-y="1" output="128" pad-y="1" kernel-x="3" group="1" kernel-y="3" stride-x="1" pad-x="1"/>
      <input>
        <port id="91">
          <dim>1</dim>
          <dim>128</dim>
          <dim>38</dim>
          <dim>38</dim>
        </port>
      </input>
      <output>
        <port id="90">
          <dim>1</dim>
          <dim>128</dim>
          <dim>38</dim>
          <dim>38</dim>
        </port>
      </output>
      <weights offset="1336588" size="294912"/>
      <biases offset="1631500" size="256"/>
    </layer>
    <layer id="45" name="ReLU_stage2_unit2_relu3" type="ReLU" precision="FP16">
      <input>
        <port id="93">
          <dim>1</dim>
          <dim>128</dim>
          <dim>38</dim>
          <dim>38</dim>
        </port>
      </input>
      <output>
        <port id="92">
          <dim>1</dim>
          <dim>128</dim>
          <dim>38</dim>
          <dim>38</dim>
        </port>
      </output>
    </layer>
    <layer id="46" name="Convolution_stage2_unit2_conv3" type="Convolution" precision="FP16">
      <convolution_data stride-y="1" output="512" pad-y="0" kernel-x="1" group="1" kernel-y="1" stride-x="1" pad-x="0"/>
      <input>
        <port id="95">
          <dim>1</dim>
          <dim>128</dim>
          <dim>38</dim>
          <dim>38</dim>
        </port>
      </input>
      <output>
        <port id="94">
          <dim>1</dim>
          <dim>512</dim>
          <dim>38</dim>
          <dim>38</dim>
        </port>
      </output>
      <weights offset="1631756" size="131072"/>
    </layer>
    <layer id="47" name="Eltwise__plus4" type="Eltwise" precision="FP16">
      <elementwise_data operation=""/>
      <input>
        <port id="97">
          <dim>1</dim>
          <dim>512</dim>
          <dim>38</dim>
          <dim>38</dim>
        </port>
        <port id="98">
          <dim>1</dim>
          <dim>512</dim>
          <dim>38</dim>
          <dim>38</dim>
        </port>
      </input>
      <output>
        <port id="96">
          <dim>1</dim>
          <dim>512</dim>
          <dim>38</dim>
          <dim>38</dim>
        </port>
      </output>
    </layer>
    <layer id="48" name="ScaleShift_stage2_unit3_bn1" type="ScaleShift" precision="FP16">
      <input>
        <port id="100">
          <dim>1</dim>
          <dim>512</dim>
          <dim>38</dim>
          <dim>38</dim>
        </port>
      </input>
      <output>
        <port id="99">
          <dim>1</dim>
          <dim>512</dim>
          <dim>38</dim>
          <dim>38</dim>
        </port>
      </output>
      <weights offset="1762828" size="1024"/>
      <biases offset="1763852" size="1024"/>
    </layer>
    <layer id="49" name="ReLU_stage2_unit3_relu1" type="ReLU" precision="FP16">
      <input>
        <port id="102">
          <dim>1</dim>
          <dim>512</dim>
          <dim>38</dim>
          <dim>38</dim>
        </port>
      </input>
      <output>
        <port id="101">
          <dim>1</dim>
          <dim>512</dim>
          <dim>38</dim>
          <dim>38</dim>
        </port>
      </output>
    </layer>
    <layer id="50" name="Convolution_stage2_unit3_conv1" type="Convolution" precision="FP16">
      <convolution_data stride-y="1" output="128" pad-y="0" kernel-x="1" group="1" kernel-y="1" stride-x="1" pad-x="0"/>
      <input>
        <port id="104">
          <dim>1</dim>
          <dim>512</dim>
          <dim>38</dim>
          <dim>38</dim>
        </port>
      </input>
      <output>
        <port id="103">
          <dim>1</dim>
          <dim>128</dim>
          <dim>38</dim>
          <dim>38</dim>
        </port>
      </output>
      <weights offset="1764876" size="131072"/>
      <biases offset="1895948" size="256"/>
    </layer>
    <layer id="51" name="ReLU_stage2_unit3_relu2" type="ReLU" precision="FP16">
      <input>
        <port id="106">
          <dim>1</dim>
          <dim>128</dim>
          <dim>38</dim>
          <dim>38</dim>
        </port>
      </input>
      <output>
        <port id="105">
          <dim>1</dim>
          <dim>128</dim>
          <dim>38</dim>
          <dim>38</dim>
        </port>
      </output>
    </layer>
    <layer id="52" name="Convolution_stage2_unit3_conv2" type="Convolution" precision="FP16">
      <convolution_data stride-y="1" output="128" pad-y="1" kernel-x="3" group="1" kernel-y="3" stride-x="1" pad-x="1"/>
      <input>
        <port id="108">
          <dim>1</dim>
          <dim>128</dim>
          <dim>38</dim>
          <dim>38</dim>
        </port>
      </input>
      <output>
        <port id="107">
          <dim>1</dim>
          <dim>128</dim>
          <dim>38</dim>
          <dim>38</dim>
        </port>
      </output>
      <weights offset="1896204" size="294912"/>
      <biases offset="2191116" size="256"/>
    </layer>
    <layer id="53" name="ReLU_stage2_unit3_relu3" type="ReLU" precision="FP16">
      <input>
        <port id="110">
          <dim>1</dim>
          <dim>128</dim>
          <dim>38</dim>
          <dim>38</dim>
        </port>
      </input>
      <output>
        <port id="109">
          <dim>1</dim>
          <dim>128</dim>
          <dim>38</dim>
          <dim>38</dim>
        </port>
      </output>
    </layer>
    <layer id="54" name="Convolution_stage2_unit3_conv3" type="Convolution" precision="FP16">
      <convolution_data stride-y="1" output="512" pad-y="0" kernel-x="1" group="1" kernel-y="1" stride-x="1" pad-x="0"/>
      <input>
        <port id="112">
          <dim>1</dim>
          <dim>128</dim>
          <dim>38</dim>
          <dim>38</dim>
        </port>
      </input>
      <output>
        <port id="111">
          <dim>1</dim>
          <dim>512</dim>
          <dim>38</dim>
          <dim>38</dim>
        </port>
      </output>
      <weights offset="2191372" size="131072"/>
    </layer>
    <layer id="55" name="Eltwise__plus5" type="Eltwise" precision="FP16">
      <elementwise_data operation=""/>
      <input>
        <port id="114">
          <dim>1</dim>
          <dim>512</dim>
          <dim>38</dim>
          <dim>38</dim>
        </port>
        <port id="115">
          <dim>1</dim>
          <dim>512</dim>
          <dim>38</dim>
          <dim>38</dim>
        </port>
      </input>
      <output>
        <port id="113">
          <dim>1</dim>
          <dim>512</dim>
          <dim>38</dim>
          <dim>38</dim>
        </port>
      </output>
    </layer>
    <layer id="56" name="ScaleShift_stage2_unit4_bn1" type="ScaleShift" precision="FP16">
      <input>
        <port id="117">
          <dim>1</dim>
          <dim>512</dim>
          <dim>38</dim>
          <dim>38</dim>
        </port>
      </input>
      <output>
        <port id="116">
          <dim>1</dim>
          <dim>512</dim>
          <dim>38</dim>
          <dim>38</dim>
        </port>
      </output>
      <weights offset="2322444" size="1024"/>
      <biases offset="2323468" size="1024"/>
    </layer>
    <layer id="57" name="ReLU_stage2_unit4_relu1" type="ReLU" precision="FP16">
      <input>
        <port id="119">
          <dim>1</dim>
          <dim>512</dim>
          <dim>38</dim>
          <dim>38</dim>
        </port>
      </input>
      <output>
        <port id="118">
          <dim>1</dim>
          <dim>512</dim>
          <dim>38</dim>
          <dim>38</dim>
        </port>
      </output>
    </layer>
    <layer id="58" name="Convolution_stage2_unit4_conv1" type="Convolution" precision="FP16">
      <convolution_data stride-y="1" output="128" pad-y="0" kernel-x="1" group="1" kernel-y="1" stride-x="1" pad-x="0"/>
      <input>
        <port id="121">
          <dim>1</dim>
          <dim>512</dim>
          <dim>38</dim>
          <dim>38</dim>
        </port>
      </input>
      <output>
        <port id="120">
          <dim>1</dim>
          <dim>128</dim>
          <dim>38</dim>
          <dim>38</dim>
        </port>
      </output>
      <weights offset="2324492" size="131072"/>
      <biases offset="2455564" size="256"/>
    </layer>
    <layer id="59" name="ReLU_stage2_unit4_relu2" type="ReLU" precision="FP16">
      <input>
        <port id="123">
          <dim>1</dim>
          <dim>128</dim>
          <dim>38</dim>
          <dim>38</dim>
        </port>
      </input>
      <output>
        <port id="122">
          <dim>1</dim>
          <dim>128</dim>
          <dim>38</dim>
          <dim>38</dim>
        </port>
      </output>
    </layer>
    <layer id="60" name="Convolution_stage2_unit4_conv2" type="Convolution" precision="FP16">
      <convolution_data stride-y="1" output="128" pad-y="1" kernel-x="3" group="1" kernel-y="3" stride-x="1" pad-x="1"/>
      <input>
        <port id="125">
          <dim>1</dim>
          <dim>128</dim>
          <dim>38</dim>
          <dim>38</dim>
        </port>
      </input>
      <output>
        <port id="124">
          <dim>1</dim>
          <dim>128</dim>
          <dim>38</dim>
          <dim>38</dim>
        </port>
      </output>
      <weights offset="2455820" size="294912"/>
      <biases offset="2750732" size="256"/>
    </layer>
    <layer id="61" name="ReLU_stage2_unit4_relu3" type="ReLU" precision="FP16">
      <input>
        <port id="127">
          <dim>1</dim>
          <dim>128</dim>
          <dim>38</dim>
          <dim>38</dim>
        </port>
      </input>
      <output>
        <port id="126">
          <dim>1</dim>
          <dim>128</dim>
          <dim>38</dim>
          <dim>38</dim>
        </port>
      </output>
    </layer>
    <layer id="62" name="Convolution_stage2_unit4_conv3" type="Convolution" precision="FP16">
      <convolution_data stride-y="1" output="512" pad-y="0" kernel-x="1" group="1" kernel-y="1" stride-x="1" pad-x="0"/>
      <input>
        <port id="129">
          <dim>1</dim>
          <dim>128</dim>
          <dim>38</dim>
          <dim>38</dim>
        </port>
      </input>
      <output>
        <port id="128">
          <dim>1</dim>
          <dim>512</dim>
          <dim>38</dim>
          <dim>38</dim>
        </port>
      </output>
      <weights offset="2750988" size="131072"/>
    </layer>
    <layer id="63" name="Eltwise__plus6" type="Eltwise" precision="FP16">
      <elementwise_data operation=""/>
      <input>
        <port id="131">
          <dim>1</dim>
          <dim>512</dim>
          <dim>38</dim>
          <dim>38</dim>
        </port>
        <port id="132">
          <dim>1</dim>
          <dim>512</dim>
          <dim>38</dim>
          <dim>38</dim>
        </port>
      </input>
      <output>
        <port id="130">
          <dim>1</dim>
          <dim>512</dim>
          <dim>38</dim>
          <dim>38</dim>
        </port>
      </output>
    </layer>
    <layer id="64" name="ScaleShift_stage3_unit1_bn1" type="ScaleShift" precision="FP16">
      <input>
        <port id="134">
          <dim>1</dim>
          <dim>512</dim>
          <dim>38</dim>
          <dim>38</dim>
        </port>
      </input>
      <output>
        <port id="133">
          <dim>1</dim>
          <dim>512</dim>
          <dim>38</dim>
          <dim>38</dim>
        </port>
      </output>
      <weights offset="2882060" size="1024"/>
      <biases offset="2883084" size="1024"/>
    </layer>
    <layer id="65" name="ReLU_stage3_unit1_relu1" type="ReLU" precision="FP16">
      <input>
        <port id="136">
          <dim>1</dim>
          <dim>512</dim>
          <dim>38</dim>
          <dim>38</dim>
        </port>
      </input>
      <output>
        <port id="135">
          <dim>1</dim>
          <dim>512</dim>
          <dim>38</dim>
          <dim>38</dim>
        </port>
      </output>
    </layer>
    <layer id="66" name="Convolution_stage3_unit1_conv1" type="Convolution" precision="FP16">
      <convolution_data stride-y="1" output="256" pad-y="0" kernel-x="1" group="1" kernel-y="1" stride-x="1" pad-x="0"/>
      <input>
        <port id="138">
          <dim>1</dim>
          <dim>512</dim>
          <dim>38</dim>
          <dim>38</dim>
        </port>
      </input>
      <output>
        <port id="137">
          <dim>1</dim>
          <dim>256</dim>
          <dim>38</dim>
          <dim>38</dim>
        </port>
      </output>
      <weights offset="2884108" size="262144"/>
      <biases offset="3146252" size="512"/>
    </layer>
    <layer id="67" name="ReLU_stage3_unit1_relu2" type="ReLU" precision="FP16">
      <input>
        <port id="140">
          <dim>1</dim>
          <dim>256</dim>
          <dim>38</dim>
          <dim>38</dim>
        </port>
      </input>
      <output>
        <port id="139">
          <dim>1</dim>
          <dim>256</dim>
          <dim>38</dim>
          <dim>38</dim>
        </port>
      </output>
    </layer>
    <layer id="68" name="Convolution_stage3_unit1_conv2" type="Convolution" precision="FP16">
      <convolution_data stride-y="2" output="256" pad-y="1" kernel-x="3" group="1" kernel-y="3" stride-x="2" pad-x="1"/>
      <input>
        <port id="142">
          <dim>1</dim>
          <dim>256</dim>
          <dim>38</dim>
          <dim>38</dim>
        </port>
      </input>
      <output>
        <port id="141">
          <dim>1</dim>
          <dim>256</dim>
          <dim>19</dim>
          <dim>19</dim>
        </port>
      </output>
      <weights offset="3146764" size="1179648"/>
      <biases offset="4326412" size="512"/>
    </layer>
    <layer id="69" name="ReLU_stage3_unit1_relu3" type="ReLU" precision="FP16">
      <input>
        <port id="144">
          <dim>1</dim>
          <dim>256</dim>
          <dim>19</dim>
          <dim>19</dim>
        </port>
      </input>
      <output>
        <port id="143">
          <dim>1</dim>
          <dim>256</dim>
          <dim>19</dim>
          <dim>19</dim>
        </port>
      </output>
    </layer>
    <layer id="70" name="Convolution_stage3_unit1_conv3" type="Convolution" precision="FP16">
      <convolution_data stride-y="1" output="1024" pad-y="0" kernel-x="1" group="1" kernel-y="1" stride-x="1" pad-x="0"/>
      <input>
        <port id="146">
          <dim>1</dim>
          <dim>256</dim>
          <dim>19</dim>
          <dim>19</dim>
        </port>
      </input>
      <output>
        <port id="145">
          <dim>1</dim>
          <dim>1024</dim>
          <dim>19</dim>
          <dim>19</dim>
        </port>
      </output>
      <weights offset="4326924" size="524288"/>
    </layer>
    <layer id="71" name="Convolution_stage3_unit1_sc" type="Convolution" precision="FP16">
      <convolution_data stride-y="2" output="1024" pad-y="0" kernel-x="1" group="1" kernel-y="1" stride-x="2" pad-x="0"/>
      <input>
        <port id="148">
          <dim>1</dim>
          <dim>512</dim>
          <dim>38</dim>
          <dim>38</dim>
        </port>
      </input>
      <output>
        <port id="147">
          <dim>1</dim>
          <dim>1024</dim>
          <dim>19</dim>
          <dim>19</dim>
        </port>
      </output>
      <weights offset="4851212" size="1048576"/>
    </layer>
    <layer id="72" name="Eltwise__plus7" type="Eltwise" precision="FP16">
      <elementwise_data operation=""/>
      <input>
        <port id="150">
          <dim>1</dim>
          <dim>1024</dim>
          <dim>19</dim>
          <dim>19</dim>
        </port>
        <port id="151">
          <dim>1</dim>
          <dim>1024</dim>
          <dim>19</dim>
          <dim>19</dim>
        </port>
      </input>
      <output>
        <port id="149">
          <dim>1</dim>
          <dim>1024</dim>
          <dim>19</dim>
          <dim>19</dim>
        </port>
      </output>
    </layer>
    <layer id="73" name="ScaleShift_stage3_unit2_bn1" type="ScaleShift" precision="FP16">
      <input>
        <port id="153">
          <dim>1</dim>
          <dim>1024</dim>
          <dim>19</dim>
          <dim>19</dim>
        </port>
      </input>
      <output>
        <port id="152">
          <dim>1</dim>
          <dim>1024</dim>
          <dim>19</dim>
          <dim>19</dim>
        </port>
      </output>
      <weights offset="5899788" size="2048"/>
      <biases offset="5901836" size="2048"/>
    </layer>
    <layer id="74" name="ReLU_stage3_unit2_relu1" type="ReLU" precision="FP16">
      <input>
        <port id="155">
          <dim>1</dim>
          <dim>1024</dim>
          <dim>19</dim>
          <dim>19</dim>
        </port>
      </input>
      <output>
        <port id="154">
          <dim>1</dim>
          <dim>1024</dim>
          <dim>19</dim>
          <dim>19</dim>
        </port>
      </output>
    </layer>
    <layer id="75" name="Convolution_stage3_unit2_conv1" type="Convolution" precision="FP16">
      <convolution_data stride-y="1" output="256" pad-y="0" kernel-x="1" group="1" kernel-y="1" stride-x="1" pad-x="0"/>
      <input>
        <port id="157">
          <dim>1</dim>
          <dim>1024</dim>
          <dim>19</dim>
          <dim>19</dim>
        </port>
      </input>
      <output>
        <port id="156">
          <dim>1</dim>
          <dim>256</dim>
          <dim>19</dim>
          <dim>19</dim>
        </port>
      </output>
      <weights offset="5903884" size="524288"/>
      <biases offset="6428172" size="512"/>
    </layer>
    <layer id="76" name="ReLU_stage3_unit2_relu2" type="ReLU" precision="FP16">
      <input>
        <port id="159">
          <dim>1</dim>
          <dim>256</dim>
          <dim>19</dim>
          <dim>19</dim>
        </port>
      </input>
      <output>
        <port id="158">
          <dim>1</dim>
          <dim>256</dim>
          <dim>19</dim>
          <dim>19</dim>
        </port>
      </output>
    </layer>
    <layer id="77" name="Convolution_stage3_unit2_conv2" type="Convolution" precision="FP16">
      <convolution_data stride-y="1" output="256" pad-y="1" kernel-x="3" group="1" kernel-y="3" stride-x="1" pad-x="1"/>
      <input>
        <port id="161">
          <dim>1</dim>
          <dim>256</dim>
          <dim>19</dim>
          <dim>19</dim>
        </port>
      </input>
      <output>
        <port id="160">
          <dim>1</dim>
          <dim>256</dim>
          <dim>19</dim>
          <dim>19</dim>
        </port>
      </output>
      <weights offset="6428684" size="1179648"/>
      <biases offset="7608332" size="512"/>
    </layer>
    <layer id="78" name="ReLU_stage3_unit2_relu3" type="ReLU" precision="FP16">
      <input>
        <port id="163">
          <dim>1</dim>
          <dim>256</dim>
          <dim>19</dim>
          <dim>19</dim>
        </port>
      </input>
      <output>
        <port id="162">
          <dim>1</dim>
          <dim>256</dim>
          <dim>19</dim>
          <dim>19</dim>
        </port>
      </output>
    </layer>
    <layer id="79" name="Convolution_stage3_unit2_conv3" type="Convolution" precision="FP16">
      <convolution_data stride-y="1" output="1024" pad-y="0" kernel-x="1" group="1" kernel-y="1" stride-x="1" pad-x="0"/>
      <input>
        <port id="165">
          <dim>1</dim>
          <dim>256</dim>
          <dim>19</dim>
          <dim>19</dim>
        </port>
      </input>
      <output>
        <port id="164">
          <dim>1</dim>
          <dim>1024</dim>
          <dim>19</dim>
          <dim>19</dim>
        </port>
      </output>
      <weights offset="7608844" size="524288"/>
    </layer>
    <layer id="80" name="Eltwise__plus8" type="Eltwise" precision="FP16">
      <elementwise_data operation=""/>
      <input>
        <port id="167">
          <dim>1</dim>
          <dim>1024</dim>
          <dim>19</dim>
          <dim>19</dim>
        </port>
        <port id="168">
          <dim>1</dim>
          <dim>1024</dim>
          <dim>19</dim>
          <dim>19</dim>
        </port>
      </input>
      <output>
        <port id="166">
          <dim>1</dim>
          <dim>1024</dim>
          <dim>19</dim>
          <dim>19</dim>
        </port>
      </output>
    </layer>
    <layer id="81" name="ScaleShift_stage3_unit3_bn1" type="ScaleShift" precision="FP16">
      <input>
        <port id="170">
          <dim>1</dim>
          <dim>1024</dim>
          <dim>19</dim>
          <dim>19</dim>
        </port>
      </input>
      <output>
        <port id="169">
          <dim>1</dim>
          <dim>1024</dim>
          <dim>19</dim>
          <dim>19</dim>
        </port>
      </output>
      <weights offset="8133132" size="2048"/>
      <biases offset="8135180" size="2048"/>
    </layer>
    <layer id="82" name="ReLU_stage3_unit3_relu1" type="ReLU" precision="FP16">
      <input>
        <port id="172">
          <dim>1</dim>
          <dim>1024</dim>
          <dim>19</dim>
          <dim>19</dim>
        </port>
      </input>
      <output>
        <port id="171">
          <dim>1</dim>
          <dim>1024</dim>
          <dim>19</dim>
          <dim>19</dim>
        </port>
      </output>
    </layer>
    <layer id="83" name="Convolution_stage3_unit3_conv1" type="Convolution" precision="FP16">
      <convolution_data stride-y="1" output="256" pad-y="0" kernel-x="1" group="1" kernel-y="1" stride-x="1" pad-x="0"/>
      <input>
        <port id="174">
          <dim>1</dim>
          <dim>1024</dim>
          <dim>19</dim>
          <dim>19</dim>
        </port>
      </input>
      <output>
        <port id="173">
          <dim>1</dim>
          <dim>256</dim>
          <dim>19</dim>
          <dim>19</dim>
        </port>
      </output>
      <weights offset="8137228" size="524288"/>
      <biases offset="8661516" size="512"/>
    </layer>
    <layer id="84" name="ReLU_stage3_unit3_relu2" type="ReLU" precision="FP16">
      <input>
        <port id="176">
          <dim>1</dim>
          <dim>256</dim>
          <dim>19</dim>
          <dim>19</dim>
        </port>
      </input>
      <output>
        <port id="175">
          <dim>1</dim>
          <dim>256</dim>
          <dim>19</dim>
          <dim>19</dim>
        </port>
      </output>
    </layer>
    <layer id="85" name="Convolution_stage3_unit3_conv2" type="Convolution" precision="FP16">
      <convolution_data stride-y="1" output="256" pad-y="1" kernel-x="3" group="1" kernel-y="3" stride-x="1" pad-x="1"/>
      <input>
        <port id="178">
          <dim>1</dim>
          <dim>256</dim>
          <dim>19</dim>
          <dim>19</dim>
        </port>
      </input>
      <output>
        <port id="177">
          <dim>1</dim>
          <dim>256</dim>
          <dim>19</dim>
          <dim>19</dim>
        </port>
      </output>
      <weights offset="8662028" size="1179648"/>
      <biases offset="9841676" size="512"/>
    </layer>
    <layer id="86" name="ReLU_stage3_unit3_relu3" type="ReLU" precision="FP16">
      <input>
        <port id="180">
          <dim>1</dim>
          <dim>256</dim>
          <dim>19</dim>
          <dim>19</dim>
        </port>
      </input>
      <output>
        <port id="179">
          <dim>1</dim>
          <dim>256</dim>
          <dim>19</dim>
          <dim>19</dim>
        </port>
      </output>
    </layer>
    <layer id="87" name="Convolution_stage3_unit3_conv3" type="Convolution" precision="FP16">
      <convolution_data stride-y="1" output="1024" pad-y="0" kernel-x="1" group="1" kernel-y="1" stride-x="1" pad-x="0"/>
      <input>
        <port id="182">
          <dim>1</dim>
          <dim>256</dim>
          <dim>19</dim>
          <dim>19</dim>
        </port>
      </input>
      <output>
        <port id="181">
          <dim>1</dim>
          <dim>1024</dim>
          <dim>19</dim>
          <dim>19</dim>
        </port>
      </output>
      <weights offset="9842188" size="524288"/>
    </layer>
    <layer id="88" name="Eltwise__plus9" type="Eltwise" precision="FP16">
      <elementwise_data operation=""/>
      <input>
        <port id="184">
          <dim>1</dim>
          <dim>1024</dim>
          <dim>19</dim>
          <dim>19</dim>
        </port>
        <port id="185">
          <dim>1</dim>
          <dim>1024</dim>
          <dim>19</dim>
          <dim>19</dim>
        </port>
      </input>
      <output>
        <port id="183">
          <dim>1</dim>
          <dim>1024</dim>
          <dim>19</dim>
          <dim>19</dim>
        </port>
      </output>
    </layer>
    <layer id="89" name="ScaleShift_stage3_unit4_bn1" type="ScaleShift" precision="FP16">
      <input>
        <port id="187">
          <dim>1</dim>
          <dim>1024</dim>
          <dim>19</dim>
          <dim>19</dim>
        </port>
      </input>
      <output>
        <port id="186">
          <dim>1</dim>
          <dim>1024</dim>
          <dim>19</dim>
          <dim>19</dim>
        </port>
      </output>
      <weights offset="10366476" size="2048"/>
      <biases offset="10368524" size="2048"/>
    </layer>
    <layer id="90" name="ReLU_stage3_unit4_relu1" type="ReLU" precision="FP16">
      <input>
        <port id="189">
          <dim>1</dim>
          <dim>1024</dim>
          <dim>19</dim>
          <dim>19</dim>
        </port>
      </input>
      <output>
        <port id="188">
          <dim>1</dim>
          <dim>1024</dim>
          <dim>19</dim>
          <dim>19</dim>
        </port>
      </output>
    </layer>
    <layer id="91" name="Convolution_stage3_unit4_conv1" type="Convolution" precision="FP16">
      <convolution_data stride-y="1" output="256" pad-y="0" kernel-x="1" group="1" kernel-y="1" stride-x="1" pad-x="0"/>
      <input>
        <port id="191">
          <dim>1</dim>
          <dim>1024</dim>
          <dim>19</dim>
          <dim>19</dim>
        </port>
      </input>
      <output>
        <port id="190">
          <dim>1</dim>
          <dim>256</dim>
          <dim>19</dim>
          <dim>19</dim>
        </port>
      </output>
      <weights offset="10370572" size="524288"/>
      <biases offset="10894860" size="512"/>
    </layer>
    <layer id="92" name="ReLU_stage3_unit4_relu2" type="ReLU" precision="FP16">
      <input>
        <port id="193">
          <dim>1</dim>
          <dim>256</dim>
          <dim>19</dim>
          <dim>19</dim>
        </port>
      </input>
      <output>
        <port id="192">
          <dim>1</dim>
          <dim>256</dim>
          <dim>19</dim>
          <dim>19</dim>
        </port>
      </output>
    </layer>
    <layer id="93" name="Convolution_stage3_unit4_conv2" type="Convolution" precision="FP16">
      <convolution_data stride-y="1" output="256" pad-y="1" kernel-x="3" group="1" kernel-y="3" stride-x="1" pad-x="1"/>
      <input>
        <port id="195">
          <dim>1</dim>
          <dim>256</dim>
          <dim>19</dim>
          <dim>19</dim>
        </port>
      </input>
      <output>
        <port id="194">
          <dim>1</dim>
          <dim>256</dim>
          <dim>19</dim>
          <dim>19</dim>
        </port>
      </output>
      <weights offset="10895372" size="1179648"/>
      <biases offset="12075020" size="512"/>
    </layer>
    <layer id="94" name="ReLU_stage3_unit4_relu3" type="ReLU" precision="FP16">
      <input>
        <port id="197">
          <dim>1</dim>
          <dim>256</dim>
          <dim>19</dim>
          <dim>19</dim>
        </port>
      </input>
      <output>
        <port id="196">
          <dim>1</dim>
          <dim>256</dim>
          <dim>19</dim>
          <dim>19</dim>
        </port>
      </output>
    </layer>
    <layer id="95" name="Convolution_stage3_unit4_conv3" type="Convolution" precision="FP16">
      <convolution_data stride-y="1" output="1024" pad-y="0" kernel-x="1" group="1" kernel-y="1" stride-x="1" pad-x="0"/>
      <input>
        <port id="199">
          <dim>1</dim>
          <dim>256</dim>
          <dim>19</dim>
          <dim>19</dim>
        </port>
      </input>
      <output>
        <port id="198">
          <dim>1</dim>
          <dim>1024</dim>
          <dim>19</dim>
          <dim>19</dim>
        </port>
      </output>
      <weights offset="12075532" size="524288"/>
    </layer>
    <layer id="96" name="Eltwise__plus10" type="Eltwise" precision="FP16">
      <elementwise_data operation=""/>
      <input>
        <port id="201">
          <dim>1</dim>
          <dim>1024</dim>
          <dim>19</dim>
          <dim>19</dim>
        </port>
        <port id="202">
          <dim>1</dim>
          <dim>1024</dim>
          <dim>19</dim>
          <dim>19</dim>
        </port>
      </input>
      <output>
        <port id="200">
          <dim>1</dim>
          <dim>1024</dim>
          <dim>19</dim>
          <dim>19</dim>
        </port>
      </output>
    </layer>
    <layer id="97" name="ScaleShift_stage3_unit5_bn1" type="ScaleShift" precision="FP16">
      <input>
        <port id="204">
          <dim>1</dim>
          <dim>1024</dim>
          <dim>19</dim>
          <dim>19</dim>
        </port>
      </input>
      <output>
        <port id="203">
          <dim>1</dim>
          <dim>1024</dim>
          <dim>19</dim>
          <dim>19</dim>
        </port>
      </output>
      <weights offset="12599820" size="2048"/>
      <biases offset="12601868" size="2048"/>
    </layer>
    <layer id="98" name="ReLU_stage3_unit5_relu1" type="ReLU" precision="FP16">
      <input>
        <port id="206">
          <dim>1</dim>
          <dim>1024</dim>
          <dim>19</dim>
          <dim>19</dim>
        </port>
      </input>
      <output>
        <port id="205">
          <dim>1</dim>
          <dim>1024</dim>
          <dim>19</dim>
          <dim>19</dim>
        </port>
      </output>
    </layer>
    <layer id="99" name="Convolution_stage3_unit5_conv1" type="Convolution" precision="FP16">
      <convolution_data stride-y="1" output="256" pad-y="0" kernel-x="1" group="1" kernel-y="1" stride-x="1" pad-x="0"/>
      <input>
        <port id="208">
          <dim>1</dim>
          <dim>1024</dim>
          <dim>19</dim>
          <dim>19</dim>
        </port>
      </input>
      <output>
        <port id="207">
          <dim>1</dim>
          <dim>256</dim>
          <dim>19</dim>
          <dim>19</dim>
        </port>
      </output>
      <weights offset="12603916" size="524288"/>
      <biases offset="13128204" size="512"/>
    </layer>
    <layer id="100" name="ReLU_stage3_unit5_relu2" type="ReLU" precision="FP16">
      <input>
        <port id="210">
          <dim>1</dim>
          <dim>256</dim>
          <dim>19</dim>
          <dim>19</dim>
        </port>
      </input>
      <output>
        <port id="209">
          <dim>1</dim>
          <dim>256</dim>
          <dim>19</dim>
          <dim>19</dim>
        </port>
      </output>
    </layer>
    <layer id="101" name="Convolution_stage3_unit5_conv2" type="Convolution" precision="FP16">
      <convolution_data stride-y="1" output="256" pad-y="1" kernel-x="3" group="1" kernel-y="3" stride-x="1" pad-x="1"/>
      <input>
        <port id="212">
          <dim>1</dim>
          <dim>256</dim>
          <dim>19</dim>
          <dim>19</dim>
        </port>
      </input>
      <output>
        <port id="211">
          <dim>1</dim>
          <dim>256</dim>
          <dim>19</dim>
          <dim>19</dim>
        </port>
      </output>
      <weights offset="13128716" size="1179648"/>
      <biases offset="14308364" size="512"/>
    </layer>
    <layer id="102" name="ReLU_stage3_unit5_relu3" type="ReLU" precision="FP16">
      <input>
        <port id="214">
          <dim>1</dim>
          <dim>256</dim>
          <dim>19</dim>
          <dim>19</dim>
        </port>
      </input>
      <output>
        <port id="213">
          <dim>1</dim>
          <dim>256</dim>
          <dim>19</dim>
          <dim>19</dim>
        </port>
      </output>
    </layer>
    <layer id="103" name="Convolution_stage3_unit5_conv3" type="Convolution" precision="FP16">
      <convolution_data stride-y="1" output="1024" pad-y="0" kernel-x="1" group="1" kernel-y="1" stride-x="1" pad-x="0"/>
      <input>
        <port id="216">
          <dim>1</dim>
          <dim>256</dim>
          <dim>19</dim>
          <dim>19</dim>
        </port>
      </input>
      <output>
        <port id="215">
          <dim>1</dim>
          <dim>1024</dim>
          <dim>19</dim>
          <dim>19</dim>
        </port>
      </output>
      <weights offset="14308876" size="524288"/>
    </layer>
    <layer id="104" name="Eltwise__plus11" type="Eltwise" precision="FP16">
      <elementwise_data operation=""/>
      <input>
        <port id="218">
          <dim>1</dim>
          <dim>1024</dim>
          <dim>19</dim>
          <dim>19</dim>
        </port>
        <port id="219">
          <dim>1</dim>
          <dim>1024</dim>
          <dim>19</dim>
          <dim>19</dim>
        </port>
      </input>
      <output>
        <port id="217">
          <dim>1</dim>
          <dim>1024</dim>
          <dim>19</dim>
          <dim>19</dim>
        </port>
      </output>
    </layer>
    <layer id="105" name="ScaleShift_stage3_unit6_bn1" type="ScaleShift" precision="FP16">
      <input>
        <port id="221">
          <dim>1</dim>
          <dim>1024</dim>
          <dim>19</dim>
          <dim>19</dim>
        </port>
      </input>
      <output>
        <port id="220">
          <dim>1</dim>
          <dim>1024</dim>
          <dim>19</dim>
          <dim>19</dim>
        </port>
      </output>
      <weights offset="14833164" size="2048"/>
      <biases offset="14835212" size="2048"/>
    </layer>
    <layer id="106" name="ReLU_stage3_unit6_relu1" type="ReLU" precision="FP16">
      <input>
        <port id="223">
          <dim>1</dim>
          <dim>1024</dim>
          <dim>19</dim>
          <dim>19</dim>
        </port>
      </input>
      <output>
        <port id="222">
          <dim>1</dim>
          <dim>1024</dim>
          <dim>19</dim>
          <dim>19</dim>
        </port>
      </output>
    </layer>
    <layer id="107" name="Convolution_stage3_unit6_conv1" type="Convolution" precision="FP16">
      <convolution_data stride-y="1" output="256" pad-y="0" kernel-x="1" group="1" kernel-y="1" stride-x="1" pad-x="0"/>
      <input>
        <port id="225">
          <dim>1</dim>
          <dim>1024</dim>
          <dim>19</dim>
          <dim>19</dim>
        </port>
      </input>
      <output>
        <port id="224">
          <dim>1</dim>
          <dim>256</dim>
          <dim>19</dim>
          <dim>19</dim>
        </port>
      </output>
      <weights offset="14837260" size="524288"/>
      <biases offset="15361548" size="512"/>
    </layer>
    <layer id="108" name="ReLU_stage3_unit6_relu2" type="ReLU" precision="FP16">
      <input>
        <port id="227">
          <dim>1</dim>
          <dim>256</dim>
          <dim>19</dim>
          <dim>19</dim>
        </port>
      </input>
      <output>
        <port id="226">
          <dim>1</dim>
          <dim>256</dim>
          <dim>19</dim>
          <dim>19</dim>
        </port>
      </output>
    </layer>
    <layer id="109" name="Convolution_stage3_unit6_conv2" type="Convolution" precision="FP16">
      <convolution_data stride-y="1" output="256" pad-y="1" kernel-x="3" group="1" kernel-y="3" stride-x="1" pad-x="1"/>
      <input>
        <port id="229">
          <dim>1</dim>
          <dim>256</dim>
          <dim>19</dim>
          <dim>19</dim>
        </port>
      </input>
      <output>
        <port id="228">
          <dim>1</dim>
          <dim>256</dim>
          <dim>19</dim>
          <dim>19</dim>
        </port>
      </output>
      <weights offset="15362060" size="1179648"/>
      <biases offset="16541708" size="512"/>
    </layer>
    <layer id="110" name="ReLU_stage3_unit6_relu3" type="ReLU" precision="FP16">
      <input>
        <port id="231">
          <dim>1</dim>
          <dim>256</dim>
          <dim>19</dim>
          <dim>19</dim>
        </port>
      </input>
      <output>
        <port id="230">
          <dim>1</dim>
          <dim>256</dim>
          <dim>19</dim>
          <dim>19</dim>
        </port>
      </output>
    </layer>
    <layer id="111" name="Convolution_stage3_unit6_conv3" type="Convolution" precision="FP16">
      <convolution_data stride-y="1" output="1024" pad-y="0" kernel-x="1" group="1" kernel-y="1" stride-x="1" pad-x="0"/>
      <input>
        <port id="233">
          <dim>1</dim>
          <dim>256</dim>
          <dim>19</dim>
          <dim>19</dim>
        </port>
      </input>
      <output>
        <port id="232">
          <dim>1</dim>
          <dim>1024</dim>
          <dim>19</dim>
          <dim>19</dim>
        </port>
      </output>
      <weights offset="16542220" size="524288"/>
    </layer>
    <layer id="112" name="Eltwise__plus12" type="Eltwise" precision="FP16">
      <elementwise_data operation=""/>
      <input>
        <port id="235">
          <dim>1</dim>
          <dim>1024</dim>
          <dim>19</dim>
          <dim>19</dim>
        </port>
        <port id="236">
          <dim>1</dim>
          <dim>1024</dim>
          <dim>19</dim>
          <dim>19</dim>
        </port>
      </input>
      <output>
        <port id="234">
          <dim>1</dim>
          <dim>1024</dim>
          <dim>19</dim>
          <dim>19</dim>
        </port>
      </output>
    </layer>
    <layer id="113" name="Convolution__plus12_cls_pred_conv" type="Convolution" precision="FP16">
      <convolution_data stride-y="1" output="8" pad-y="1" kernel-x="3" group="1" kernel-y="3" stride-x="1" pad-x="1"/>
      <input>
        <port id="238">
          <dim>1</dim>
          <dim>1024</dim>
          <dim>19</dim>
          <dim>19</dim>
        </port>
      </input>
      <output>
        <port id="237">
          <dim>1</dim>
          <dim>8</dim>
          <dim>19</dim>
          <dim>19</dim>
        </port>
      </output>
      <weights offset="17066508" size="147456"/>
      <biases offset="17213964" size="16"/>
    </layer>
    <layer id="114" name="Permute_transpose1" type="Permute" precision="FP16">
      <data order="0,2,3,1"/>
      <input>
        <port id="240">
          <dim>1</dim>
          <dim>8</dim>
          <dim>19</dim>
          <dim>19</dim>
        </port>
      </input>
      <output>
        <port id="239">
          <dim>1</dim>
          <dim>19</dim>
          <dim>19</dim>
          <dim>8</dim>
        </port>
      </output>
    </layer>
    <layer id="115" name="Reshape_flatten2" type="Reshape" precision="FP16">
      <data num_axes="-1" dim="1,2888" axis="0"/>
      <input>
        <port id="242">
          <dim>1</dim>
          <dim>19</dim>
          <dim>19</dim>
          <dim>8</dim>
        </port>
      </input>
      <output>
        <port id="241">
          <dim>1</dim>
          <dim>2888</dim>
        </port>
      </output>
    </layer>
    <layer id="116" name="ScaleShift_stage4_unit1_bn1" type="ScaleShift" precision="FP16">
      <input>
        <port id="244">
          <dim>1</dim>
          <dim>1024</dim>
          <dim>19</dim>
          <dim>19</dim>
        </port>
      </input>
      <output>
        <port id="243">
          <dim>1</dim>
          <dim>1024</dim>
          <dim>19</dim>
          <dim>19</dim>
        </port>
      </output>
      <weights offset="17213980" size="2048"/>
      <biases offset="17216028" size="2048"/>
    </layer>
    <layer id="117" name="ReLU_stage4_unit1_relu1" type="ReLU" precision="FP16">
      <input>
        <port id="246">
          <dim>1</dim>
          <dim>1024</dim>
          <dim>19</dim>
          <dim>19</dim>
        </port>
      </input>
      <output>
        <port id="245">
          <dim>1</dim>
          <dim>1024</dim>
          <dim>19</dim>
          <dim>19</dim>
        </port>
      </output>
    </layer>
    <layer id="118" name="Convolution_stage4_unit1_conv1" type="Convolution" precision="FP16">
      <convolution_data stride-y="1" output="512" pad-y="0" kernel-x="1" group="1" kernel-y="1" stride-x="1" pad-x="0"/>
      <input>
        <port id="248">
          <dim>1</dim>
          <dim>1024</dim>
          <dim>19</dim>
          <dim>19</dim>
        </port>
      </input>
      <output>
        <port id="247">
          <dim>1</dim>
          <dim>512</dim>
          <dim>19</dim>
          <dim>19</dim>
        </port>
      </output>
      <weights offset="17218076" size="1048576"/>
      <biases offset="18266652" size="1024"/>
    </layer>
    <layer id="119" name="ReLU_stage4_unit1_relu2" type="ReLU" precision="FP16">
      <input>
        <port id="250">
          <dim>1</dim>
          <dim>512</dim>
          <dim>19</dim>
          <dim>19</dim>
        </port>
      </input>
      <output>
        <port id="249">
          <dim>1</dim>
          <dim>512</dim>
          <dim>19</dim>
          <dim>19</dim>
        </port>
      </output>
    </layer>
    <layer id="120" name="Convolution_stage4_unit1_conv2" type="Convolution" precision="FP16">
      <convolution_data stride-y="2" output="512" pad-y="1" kernel-x="3" group="1" kernel-y="3" stride-x="2" pad-x="1"/>
      <input>
        <port id="252">
          <dim>1</dim>
          <dim>512</dim>
          <dim>19</dim>
          <dim>19</dim>
        </port>
      </input>
      <output>
        <port id="251">
          <dim>1</dim>
          <dim>512</dim>
          <dim>10</dim>
          <dim>10</dim>
        </port>
      </output>
      <weights offset="18267676" size="4718592"/>
      <biases offset="22986268" size="1024"/>
    </layer>
    <layer id="121" name="ReLU_stage4_unit1_relu3" type="ReLU" precision="FP16">
      <input>
        <port id="254">
          <dim>1</dim>
          <dim>512</dim>
          <dim>10</dim>
          <dim>10</dim>
        </port>
      </input>
      <output>
        <port id="253">
          <dim>1</dim>
          <dim>512</dim>
          <dim>10</dim>
          <dim>10</dim>
        </port>
      </output>
    </layer>
    <layer id="122" name="Convolution_stage4_unit1_conv3" type="Convolution" precision="FP16">
      <convolution_data stride-y="1" output="2048" pad-y="0" kernel-x="1" group="1" kernel-y="1" stride-x="1" pad-x="0"/>
      <input>
        <port id="256">
          <dim>1</dim>
          <dim>512</dim>
          <dim>10</dim>
          <dim>10</dim>
        </port>
      </input>
      <output>
        <port id="255">
          <dim>1</dim>
          <dim>2048</dim>
          <dim>10</dim>
          <dim>10</dim>
        </port>
      </output>
      <weights offset="22987292" size="2097152"/>
    </layer>
    <layer id="123" name="Convolution_stage4_unit1_sc" type="Convolution" precision="FP16">
      <convolution_data stride-y="2" output="2048" pad-y="0" kernel-x="1" group="1" kernel-y="1" stride-x="2" pad-x="0"/>
      <input>
        <port id="258">
          <dim>1</dim>
          <dim>1024</dim>
          <dim>19</dim>
          <dim>19</dim>
        </port>
      </input>
      <output>
        <port id="257">
          <dim>1</dim>
          <dim>2048</dim>
          <dim>10</dim>
          <dim>10</dim>
        </port>
      </output>
      <weights offset="25084444" size="4194304"/>
    </layer>
    <layer id="124" name="Eltwise__plus13" type="Eltwise" precision="FP16">
      <elementwise_data operation=""/>
      <input>
        <port id="260">
          <dim>1</dim>
          <dim>2048</dim>
          <dim>10</dim>
          <dim>10</dim>
        </port>
        <port id="261">
          <dim>1</dim>
          <dim>2048</dim>
          <dim>10</dim>
          <dim>10</dim>
        </port>
      </input>
      <output>
        <port id="259">
          <dim>1</dim>
          <dim>2048</dim>
          <dim>10</dim>
          <dim>10</dim>
        </port>
      </output>
    </layer>
    <layer id="125" name="ScaleShift_stage4_unit2_bn1" type="ScaleShift" precision="FP16">
      <input>
        <port id="263">
          <dim>1</dim>
          <dim>2048</dim>
          <dim>10</dim>
          <dim>10</dim>
        </port>
      </input>
      <output>
        <port id="262">
          <dim>1</dim>
          <dim>2048</dim>
          <dim>10</dim>
          <dim>10</dim>
        </port>
      </output>
      <weights offset="29278748" size="4096"/>
      <biases offset="29282844" size="4096"/>
    </layer>
    <layer id="126" name="ReLU_stage4_unit2_relu1" type="ReLU" precision="FP16">
      <input>
        <port id="265">
          <dim>1</dim>
          <dim>2048</dim>
          <dim>10</dim>
          <dim>10</dim>
        </port>
      </input>
      <output>
        <port id="264">
          <dim>1</dim>
          <dim>2048</dim>
          <dim>10</dim>
          <dim>10</dim>
        </port>
      </output>
    </layer>
    <layer id="127" name="Convolution_stage4_unit2_conv1" type="Convolution" precision="FP16">
      <convolution_data stride-y="1" output="512" pad-y="0" kernel-x="1" group="1" kernel-y="1" stride-x="1" pad-x="0"/>
      <input>
        <port id="267">
          <dim>1</dim>
          <dim>2048</dim>
          <dim>10</dim>
          <dim>10</dim>
        </port>
      </input>
      <output>
        <port id="266">
          <dim>1</dim>
          <dim>512</dim>
          <dim>10</dim>
          <dim>10</dim>
        </port>
      </output>
      <weights offset="29286940" size="2097152"/>
      <biases offset="31384092" size="1024"/>
    </layer>
    <layer id="128" name="ReLU_stage4_unit2_relu2" type="ReLU" precision="FP16">
      <input>
        <port id="269">
          <dim>1</dim>
          <dim>512</dim>
          <dim>10</dim>
          <dim>10</dim>
        </port>
      </input>
      <output>
        <port id="268">
          <dim>1</dim>
          <dim>512</dim>
          <dim>10</dim>
          <dim>10</dim>
        </port>
      </output>
    </layer>
    <layer id="129" name="Convolution_stage4_unit2_conv2" type="Convolution" precision="FP16">
      <convolution_data stride-y="1" output="512" pad-y="1" kernel-x="3" group="1" kernel-y="3" stride-x="1" pad-x="1"/>
      <input>
        <port id="271">
          <dim>1</dim>
          <dim>512</dim>
          <dim>10</dim>
          <dim>10</dim>
        </port>
      </input>
      <output>
        <port id="270">
          <dim>1</dim>
          <dim>512</dim>
          <dim>10</dim>
          <dim>10</dim>
        </port>
      </output>
      <weights offset="31385116" size="4718592"/>
      <biases offset="36103708" size="1024"/>
    </layer>
    <layer id="130" name="ReLU_stage4_unit2_relu3" type="ReLU" precision="FP16">
      <input>
        <port id="273">
          <dim>1</dim>
          <dim>512</dim>
          <dim>10</dim>
          <dim>10</dim>
        </port>
      </input>
      <output>
        <port id="272">
          <dim>1</dim>
          <dim>512</dim>
          <dim>10</dim>
          <dim>10</dim>
        </port>
      </output>
    </layer>
    <layer id="131" name="Convolution_stage4_unit2_conv3" type="Convolution" precision="FP16">
      <convolution_data stride-y="1" output="2048" pad-y="0" kernel-x="1" group="1" kernel-y="1" stride-x="1" pad-x="0"/>
      <input>
        <port id="275">
          <dim>1</dim>
          <dim>512</dim>
          <dim>10</dim>
          <dim>10</dim>
        </port>
      </input>
      <output>
        <port id="274">
          <dim>1</dim>
          <dim>2048</dim>
          <dim>10</dim>
          <dim>10</dim>
        </port>
      </output>
      <weights offset="36104732" size="2097152"/>
    </layer>
    <layer id="132" name="Eltwise__plus14" type="Eltwise" precision="FP16">
      <elementwise_data operation=""/>
      <input>
        <port id="277">
          <dim>1</dim>
          <dim>2048</dim>
          <dim>10</dim>
          <dim>10</dim>
        </port>
        <port id="278">
          <dim>1</dim>
          <dim>2048</dim>
          <dim>10</dim>
          <dim>10</dim>
        </port>
      </input>
      <output>
        <port id="276">
          <dim>1</dim>
          <dim>2048</dim>
          <dim>10</dim>
          <dim>10</dim>
        </port>
      </output>
    </layer>
    <layer id="133" name="ScaleShift_stage4_unit3_bn1" type="ScaleShift" precision="FP16">
      <input>
        <port id="280">
          <dim>1</dim>
          <dim>2048</dim>
          <dim>10</dim>
          <dim>10</dim>
        </port>
      </input>
      <output>
        <port id="279">
          <dim>1</dim>
          <dim>2048</dim>
          <dim>10</dim>
          <dim>10</dim>
        </port>
      </output>
      <weights offset="38201884" size="4096"/>
      <biases offset="38205980" size="4096"/>
    </layer>
    <layer id="134" name="ReLU_stage4_unit3_relu1" type="ReLU" precision="FP16">
      <input>
        <port id="282">
          <dim>1</dim>
          <dim>2048</dim>
          <dim>10</dim>
          <dim>10</dim>
        </port>
      </input>
      <output>
        <port id="281">
          <dim>1</dim>
          <dim>2048</dim>
          <dim>10</dim>
          <dim>10</dim>
        </port>
      </output>
    </layer>
    <layer id="135" name="Convolution_stage4_unit3_conv1" type="Convolution" precision="FP16">
      <convolution_data stride-y="1" output="512" pad-y="0" kernel-x="1" group="1" kernel-y="1" stride-x="1" pad-x="0"/>
      <input>
        <port id="284">
          <dim>1</dim>
          <dim>2048</dim>
          <dim>10</dim>
          <dim>10</dim>
        </port>
      </input>
      <output>
        <port id="283">
          <dim>1</dim>
          <dim>512</dim>
          <dim>10</dim>
          <dim>10</dim>
        </port>
      </output>
      <weights offset="38210076" size="2097152"/>
      <biases offset="40307228" size="1024"/>
    </layer>
    <layer id="136" name="ReLU_stage4_unit3_relu2" type="ReLU" precision="FP16">
      <input>
        <port id="286">
          <dim>1</dim>
          <dim>512</dim>
          <dim>10</dim>
          <dim>10</dim>
        </port>
      </input>
      <output>
        <port id="285">
          <dim>1</dim>
          <dim>512</dim>
          <dim>10</dim>
          <dim>10</dim>
        </port>
      </output>
    </layer>
    <layer id="137" name="Convolution_stage4_unit3_conv2" type="Convolution" precision="FP16">
      <convolution_data stride-y="1" output="512" pad-y="1" kernel-x="3" group="1" kernel-y="3" stride-x="1" pad-x="1"/>
      <input>
        <port id="288">
          <dim>1</dim>
          <dim>512</dim>
          <dim>10</dim>
          <dim>10</dim>
        </port>
      </input>
      <output>
        <port id="287">
          <dim>1</dim>
          <dim>512</dim>
          <dim>10</dim>
          <dim>10</dim>
        </port>
      </output>
      <weights offset="40308252" size="4718592"/>
      <biases offset="45026844" size="1024"/>
    </layer>
    <layer id="138" name="ReLU_stage4_unit3_relu3" type="ReLU" precision="FP16">
      <input>
        <port id="290">
          <dim>1</dim>
          <dim>512</dim>
          <dim>10</dim>
          <dim>10</dim>
        </port>
      </input>
      <output>
        <port id="289">
          <dim>1</dim>
          <dim>512</dim>
          <dim>10</dim>
          <dim>10</dim>
        </port>
      </output>
    </layer>
    <layer id="139" name="Convolution_stage4_unit3_conv3" type="Convolution" precision="FP16">
      <convolution_data stride-y="1" output="2048" pad-y="0" kernel-x="1" group="1" kernel-y="1" stride-x="1" pad-x="0"/>
      <input>
        <port id="292">
          <dim>1</dim>
          <dim>512</dim>
          <dim>10</dim>
          <dim>10</dim>
        </port>
      </input>
      <output>
        <port id="291">
          <dim>1</dim>
          <dim>2048</dim>
          <dim>10</dim>
          <dim>10</dim>
        </port>
      </output>
      <weights offset="45027868" size="2097152"/>
    </layer>
    <layer id="140" name="Eltwise__plus15" type="Eltwise" precision="FP16">
      <elementwise_data operation=""/>
      <input>
        <port id="294">
          <dim>1</dim>
          <dim>2048</dim>
          <dim>10</dim>
          <dim>10</dim>
        </port>
        <port id="295">
          <dim>1</dim>
          <dim>2048</dim>
          <dim>10</dim>
          <dim>10</dim>
        </port>
      </input>
      <output>
        <port id="293">
          <dim>1</dim>
          <dim>2048</dim>
          <dim>10</dim>
          <dim>10</dim>
        </port>
      </output>
    </layer>
    <layer id="141" name="Convolution__plus15_cls_pred_conv" type="Convolution" precision="FP16">
      <convolution_data stride-y="1" output="12" pad-y="1" kernel-x="3" group="1" kernel-y="3" stride-x="1" pad-x="1"/>
      <input>
        <port id="297">
          <dim>1</dim>
          <dim>2048</dim>
          <dim>10</dim>
          <dim>10</dim>
        </port>
      </input>
      <output>
        <port id="296">
          <dim>1</dim>
          <dim>12</dim>
          <dim>10</dim>
          <dim>10</dim>
        </port>
      </output>
      <weights offset="47125020" size="442368"/>
      <biases offset="47567388" size="24"/>
    </layer>
    <layer id="142" name="Permute_transpose3" type="Permute" precision="FP16">
      <data order="0,2,3,1"/>
      <input>
        <port id="299">
          <dim>1</dim>
          <dim>12</dim>
          <dim>10</dim>
          <dim>10</dim>
        </port>
      </input>
      <output>
        <port id="298">
          <dim>1</dim>
          <dim>10</dim>
          <dim>10</dim>
          <dim>12</dim>
        </port>
      </output>
    </layer>
    <layer id="143" name="Reshape_flatten5" type="Reshape" precision="FP16">
      <data num_axes="-1" dim="1,1200" axis="0"/>
      <input>
        <port id="301">
          <dim>1</dim>
          <dim>10</dim>
          <dim>10</dim>
          <dim>12</dim>
        </port>
      </input>
      <output>
        <port id="300">
          <dim>1</dim>
          <dim>1200</dim>
        </port>
      </output>
    </layer>
    <layer id="144" name="Convolution_multi_feat_2_conv_1x1_conv" type="Convolution" precision="FP16">
      <convolution_data stride-y="1" output="256" pad-y="0" kernel-x="1" group="1" kernel-y="1" stride-x="1" pad-x="0"/>
      <input>
        <port id="303">
          <dim>1</dim>
          <dim>2048</dim>
          <dim>10</dim>
          <dim>10</dim>
        </port>
      </input>
      <output>
        <port id="302">
          <dim>1</dim>
          <dim>256</dim>
          <dim>10</dim>
          <dim>10</dim>
        </port>
      </output>
      <weights offset="47567412" size="1048576"/>
      <biases offset="48615988" size="512"/>
    </layer>
    <layer id="145" name="ReLU_multi_feat_2_conv_1x1_relu" type="ReLU" precision="FP16">
      <input>
        <port id="305">
          <dim>1</dim>
          <dim>256</dim>
          <dim>10</dim>
          <dim>10</dim>
        </port>
      </input>
      <output>
        <port id="304">
          <dim>1</dim>
          <dim>256</dim>
          <dim>10</dim>
          <dim>10</dim>
        </port>
      </output>
    </layer>
    <layer id="146" name="Convolution_multi_feat_2_conv_3x3_conv" type="Convolution" precision="FP16">
      <convolution_data stride-y="2" output="512" pad-y="1" kernel-x="3" group="1" kernel-y="3" stride-x="2" pad-x="1"/>
      <input>
        <port id="307">
          <dim>1</dim>
          <dim>256</dim>
          <dim>10</dim>
          <dim>10</dim>
        </port>
      </input>
      <output>
        <port id="306">
          <dim>1</dim>
          <dim>512</dim>
          <dim>5</dim>
          <dim>5</dim>
        </port>
      </output>
      <weights offset="48616500" size="2359296"/>
      <biases offset="50975796" size="1024"/>
    </layer>
    <layer id="147" name="ReLU_multi_feat_2_conv_3x3_relu" type="ReLU" precision="FP16">
      <input>
        <port id="309">
          <dim>1</dim>
          <dim>512</dim>
          <dim>5</dim>
          <dim>5</dim>
        </port>
      </input>
      <output>
        <port id="308">
          <dim>1</dim>
          <dim>512</dim>
          <dim>5</dim>
          <dim>5</dim>
        </port>
      </output>
    </layer>
    <layer id="148" name="Convolution_multi_feat_2_conv_3x3_relu_cls_pred_conv" type="Convolution" precision="FP16">
      <convolution_data stride-y="1" output="12" pad-y="1" kernel-x="3" group="1" kernel-y="3" stride-x="1" pad-x="1"/>
      <input>
        <port id="311">
          <dim>1</dim>
          <dim>512</dim>
          <dim>5</dim>
          <dim>5</dim>
        </port>
      </input>
      <output>
        <port id="310">
          <dim>1</dim>
          <dim>12</dim>
          <dim>5</dim>
          <dim>5</dim>
        </port>
      </output>
      <weights offset="50976820" size="110592"/>
      <biases offset="51087412" size="24"/>
    </layer>
    <layer id="149" name="Permute_transpose5" type="Permute" precision="FP16">
      <data order="0,2,3,1"/>
      <input>
        <port id="313">
          <dim>1</dim>
          <dim>12</dim>
          <dim>5</dim>
          <dim>5</dim>
        </port>
      </input>
      <output>
        <port id="312">
          <dim>1</dim>
          <dim>5</dim>
          <dim>5</dim>
          <dim>12</dim>
        </port>
      </output>
    </layer>
    <layer id="150" name="Reshape_flatten8" type="Reshape" precision="FP16">
      <data num_axes="-1" dim="1,300" axis="0"/>
      <input>
        <port id="315">
          <dim>1</dim>
          <dim>5</dim>
          <dim>5</dim>
          <dim>12</dim>
        </port>
      </input>
      <output>
        <port id="314">
          <dim>1</dim>
          <dim>300</dim>
        </port>
      </output>
    </layer>
    <layer id="151" name="Convolution_multi_feat_3_conv_1x1_conv" type="Convolution" precision="FP16">
      <convolution_data stride-y="1" output="128" pad-y="0" kernel-x="1" group="1" kernel-y="1" stride-x="1" pad-x="0"/>
      <input>
        <port id="317">
          <dim>1</dim>
          <dim>512</dim>
          <dim>5</dim>
          <dim>5</dim>
        </port>
      </input>
      <output>
        <port id="316">
          <dim>1</dim>
          <dim>128</dim>
          <dim>5</dim>
          <dim>5</dim>
        </port>
      </output>
      <weights offset="51087436" size="131072"/>
      <biases offset="51218508" size="256"/>
    </layer>
    <layer id="152" name="ReLU_multi_feat_3_conv_1x1_relu" type="ReLU" precision="FP16">
      <input>
        <port id="319">
          <dim>1</dim>
          <dim>128</dim>
          <dim>5</dim>
          <dim>5</dim>
        </port>
      </input>
      <output>
        <port id="318">
          <dim>1</dim>
          <dim>128</dim>
          <dim>5</dim>
          <dim>5</dim>
        </port>
      </output>
    </layer>
    <layer id="153" name="Convolution_multi_feat_3_conv_3x3_conv" type="Convolution" precision="FP16">
      <convolution_data stride-y="2" output="256" pad-y="1" kernel-x="3" group="1" kernel-y="3" stride-x="2" pad-x="1"/>
      <input>
        <port id="321">
          <dim>1</dim>
          <dim>128</dim>
          <dim>5</dim>
          <dim>5</dim>
        </port>
      </input>
      <output>
        <port id="320">
          <dim>1</dim>
          <dim>256</dim>
          <dim>3</dim>
          <dim>3</dim>
        </port>
      </output>
      <weights offset="51218764" size="589824"/>
      <biases offset="51808588" size="512"/>
    </layer>
    <layer id="154" name="ReLU_multi_feat_3_conv_3x3_relu" type="ReLU" precision="FP16">
      <input>
        <port id="323">
          <dim>1</dim>
          <dim>256</dim>
          <dim>3</dim>
          <dim>3</dim>
        </port>
      </input>
      <output>
        <port id="322">
          <dim>1</dim>
          <dim>256</dim>
          <dim>3</dim>
          <dim>3</dim>
        </port>
      </output>
    </layer>
    <layer id="155" name="Convolution_multi_feat_3_conv_3x3_relu_cls_pred_conv" type="Convolution" precision="FP16">
      <convolution_data stride-y="1" output="12" pad-y="1" kernel-x="3" group="1" kernel-y="3" stride-x="1" pad-x="1"/>
      <input>
        <port id="325">
          <dim>1</dim>
          <dim>256</dim>
          <dim>3</dim>
          <dim>3</dim>
        </port>
      </input>
      <output>
        <port id="324">
          <dim>1</dim>
          <dim>12</dim>
          <dim>3</dim>
          <dim>3</dim>
        </port>
      </output>
      <weights offset="51809100" size="55296"/>
      <biases offset="51864396" size="24"/>
    </layer>
    <layer id="156" name="Permute_transpose7" type="Permute" precision="FP16">
      <data order="0,2,3,1"/>
      <input>
        <port id="327">
          <dim>1</dim>
          <dim>12</dim>
          <dim>3</dim>
          <dim>3</dim>
        </port>
      </input>
      <output>
        <port id="326">
          <dim>1</dim>
          <dim>3</dim>
          <dim>3</dim>
          <dim>12</dim>
        </port>
      </output>
    </layer>
    <layer id="157" name="Reshape_flatten11" type="Reshape" precision="FP16">
      <data num_axes="-1" dim="1,108" axis="0"/>
      <input>
        <port id="329">
          <dim>1</dim>
          <dim>3</dim>
          <dim>3</dim>
          <dim>12</dim>
        </port>
      </input>
      <output>
        <port id="328">
          <dim>1</dim>
          <dim>108</dim>
        </port>
      </output>
    </layer>
    <layer id="158" name="Convolution_multi_feat_4_conv_1x1_conv" type="Convolution" precision="FP16">
      <convolution_data stride-y="1" output="128" pad-y="0" kernel-x="1" group="1" kernel-y="1" stride-x="1" pad-x="0"/>
      <input>
        <port id="331">
          <dim>1</dim>
          <dim>256</dim>
          <dim>3</dim>
          <dim>3</dim>
        </port>
      </input>
      <output>
        <port id="330">
          <dim>1</dim>
          <dim>128</dim>
          <dim>3</dim>
          <dim>3</dim>
        </port>
      </output>
      <weights offset="51864420" size="65536"/>
      <biases offset="51929956" size="256"/>
    </layer>
    <layer id="159" name="ReLU_multi_feat_4_conv_1x1_relu" type="ReLU" precision="FP16">
      <input>
        <port id="333">
          <dim>1</dim>
          <dim>128</dim>
          <dim>3</dim>
          <dim>3</dim>
        </port>
      </input>
      <output>
        <port id="332">
          <dim>1</dim>
          <dim>128</dim>
          <dim>3</dim>
          <dim>3</dim>
        </port>
      </output>
    </layer>
    <layer id="160" name="Convolution_multi_feat_4_conv_3x3_conv" type="Convolution" precision="FP16">
      <convolution_data stride-y="2" output="256" pad-y="1" kernel-x="3" group="1" kernel-y="3" stride-x="2" pad-x="1"/>
      <input>
        <port id="335">
          <dim>1</dim>
          <dim>128</dim>
          <dim>3</dim>
          <dim>3</dim>
        </port>
      </input>
      <output>
        <port id="334">
          <dim>1</dim>
          <dim>256</dim>
          <dim>2</dim>
          <dim>2</dim>
        </port>
      </output>
      <weights offset="51930212" size="589824"/>
      <biases offset="52520036" size="512"/>
    </layer>
    <layer id="161" name="ReLU_multi_feat_4_conv_3x3_relu" type="ReLU" precision="FP16">
      <input>
        <port id="337">
          <dim>1</dim>
          <dim>256</dim>
          <dim>2</dim>
          <dim>2</dim>
        </port>
      </input>
      <output>
        <port id="336">
          <dim>1</dim>
          <dim>256</dim>
          <dim>2</dim>
          <dim>2</dim>
        </port>
      </output>
    </layer>
    <layer id="162" name="Convolution_multi_feat_4_conv_3x3_relu_cls_pred_conv" type="Convolution" precision="FP16">
      <convolution_data stride-y="1" output="8" pad-y="1" kernel-x="3" group="1" kernel-y="3" stride-x="1" pad-x="1"/>
      <input>
        <port id="339">
          <dim>1</dim>
          <dim>256</dim>
          <dim>2</dim>
          <dim>2</dim>
        </port>
      </input>
      <output>
        <port id="338">
          <dim>1</dim>
          <dim>8</dim>
          <dim>2</dim>
          <dim>2</dim>
        </port>
      </output>
      <weights offset="52520548" size="36864"/>
      <biases offset="52557412" size="16"/>
    </layer>
    <layer id="163" name="Permute_transpose9" type="Permute" precision="FP16">
      <data order="0,2,3,1"/>
      <input>
        <port id="341">
          <dim>1</dim>
          <dim>8</dim>
          <dim>2</dim>
          <dim>2</dim>
        </port>
      </input>
      <output>
        <port id="340">
          <dim>1</dim>
          <dim>2</dim>
          <dim>2</dim>
          <dim>8</dim>
        </port>
      </output>
    </layer>
    <layer id="164" name="Reshape_flatten14" type="Reshape" precision="FP16">
      <data num_axes="-1" dim="1,32" axis="0"/>
      <input>
        <port id="343">
          <dim>1</dim>
          <dim>2</dim>
          <dim>2</dim>
          <dim>8</dim>
        </port>
      </input>
      <output>
        <port id="342">
          <dim>1</dim>
          <dim>32</dim>
        </port>
      </output>
    </layer>
    <layer id="165" name="Convolution_multi_feat_5_conv_1x1_conv" type="Convolution" precision="FP16">
      <convolution_data stride-y="1" output="128" pad-y="0" kernel-x="1" group="1" kernel-y="1" stride-x="1" pad-x="0"/>
      <input>
        <port id="345">
          <dim>1</dim>
          <dim>256</dim>
          <dim>2</dim>
          <dim>2</dim>
        </port>
      </input>
      <output>
        <port id="344">
          <dim>1</dim>
          <dim>128</dim>
          <dim>2</dim>
          <dim>2</dim>
        </port>
      </output>
      <weights offset="52557428" size="65536"/>
      <biases offset="52622964" size="256"/>
    </layer>
    <layer id="166" name="ReLU_multi_feat_5_conv_1x1_relu" type="ReLU" precision="FP16">
      <input>
        <port id="347">
          <dim>1</dim>
          <dim>128</dim>
          <dim>2</dim>
          <dim>2</dim>
        </port>
      </input>
      <output>
        <port id="346">
          <dim>1</dim>
          <dim>128</dim>
          <dim>2</dim>
          <dim>2</dim>
        </port>
      </output>
    </layer>
    <layer id="167" name="Convolution_multi_feat_5_conv_3x3_conv" type="Convolution" precision="FP16">
      <convolution_data stride-y="2" output="128" pad-y="1" kernel-x="3" group="1" kernel-y="3" stride-x="2" pad-x="1"/>
      <input>
        <port id="349">
          <dim>1</dim>
          <dim>128</dim>
          <dim>2</dim>
          <dim>2</dim>
        </port>
      </input>
      <output>
        <port id="348">
          <dim>1</dim>
          <dim>128</dim>
          <dim>1</dim>
          <dim>1</dim>
        </port>
      </output>
      <weights offset="52623220" size="294912"/>
      <biases offset="52918132" size="256"/>
    </layer>
    <layer id="168" name="ReLU_multi_feat_5_conv_3x3_relu" type="ReLU" precision="FP16">
      <input>
        <port id="351">
          <dim>1</dim>
          <dim>128</dim>
          <dim>1</dim>
          <dim>1</dim>
        </port>
      </input>
      <output>
        <port id="350">
          <dim>1</dim>
          <dim>128</dim>
          <dim>1</dim>
          <dim>1</dim>
        </port>
      </output>
    </layer>
    <layer id="169" name="Convolution_multi_feat_5_conv_3x3_relu_cls_pred_conv" type="Convolution" precision="FP16">
      <convolution_data stride-y="1" output="8" pad-y="1" kernel-x="3" group="1" kernel-y="3" stride-x="1" pad-x="1"/>
      <input>
        <port id="353">
          <dim>1</dim>
          <dim>128</dim>
          <dim>1</dim>
          <dim>1</dim>
        </port>
      </input>
      <output>
        <port id="352">
          <dim>1</dim>
          <dim>8</dim>
          <dim>1</dim>
          <dim>1</dim>
        </port>
      </output>
      <weights offset="52918388" size="18432"/>
      <biases offset="52936820" size="16"/>
    </layer>
    <layer id="170" name="Permute_transpose11" type="Permute" precision="FP16">
      <data order="0,2,3,1"/>
      <input>
        <port id="355">
          <dim>1</dim>
          <dim>8</dim>
          <dim>1</dim>
          <dim>1</dim>
        </port>
      </input>
      <output>
        <port id="354">
          <dim>1</dim>
          <dim>1</dim>
          <dim>1</dim>
          <dim>8</dim>
        </port>
      </output>
    </layer>
    <layer id="171" name="Reshape_flatten17" type="Reshape" precision="FP16">
      <data num_axes="-1" dim="1,8" axis="0"/>
      <input>
        <port id="357">
          <dim>1</dim>
          <dim>1</dim>
          <dim>1</dim>
          <dim>8</dim>
        </port>
      </input>
      <output>
        <port id="356">
          <dim>1</dim>
          <dim>8</dim>
        </port>
      </output>
    </layer>
    <layer id="172" name="Concat_concat0" type="Concat" precision="FP16">
      <concat_data axis="1"/>
      <input>
        <port id="359">
          <dim>1</dim>
          <dim>2888</dim>
        </port>
        <port id="360">
          <dim>1</dim>
          <dim>1200</dim>
        </port>
        <port id="361">
          <dim>1</dim>
          <dim>300</dim>
        </port>
        <port id="362">
          <dim>1</dim>
          <dim>108</dim>
        </port>
        <port id="363">
          <dim>1</dim>
          <dim>32</dim>
        </port>
        <port id="364">
          <dim>1</dim>
          <dim>8</dim>
        </port>
      </input>
      <output>
        <port id="358">
          <dim>1</dim>
          <dim>4536</dim>
        </port>
      </output>
    </layer>
    <layer id="173" name="Reshape_reshape0" type="Reshape" precision="FP16">
      <reshape_data num_axes="-1" dim="0,-1,2" axis="0"/>
      <input>
        <port id="366">
          <dim>1</dim>
          <dim>4536</dim>
        </port>
      </input>
      <output>
        <port id="365">
          <dim>1</dim>
          <dim>2268</dim>
          <dim>2</dim>
        </port>
      </output>
    </layer>
    <layer id="174" name="SoftMax_cls_prob" type="SoftMax" precision="FP16">
      <data axis="2"/>
      <input>
        <port id="368">
          <dim>1</dim>
          <dim>2268</dim>
          <dim>2</dim>
        </port>
      </input>
      <output>
        <port id="367">
          <dim>1</dim>
          <dim>2268</dim>
          <dim>2</dim>
        </port>
      </output>
    </layer>
    <layer id="175" name="Reshape_cls_prob" type="Reshape" precision="FP16">
      <data num_axes="-1" dim="1,4536" axis="0"/>
      <input>
        <port id="370">
          <dim>1</dim>
          <dim>2268</dim>
          <dim>2</dim>
        </port>
      </input>
      <output>
        <port id="369">
          <dim>1</dim>
          <dim>4536</dim>
        </port>
      </output>
    </layer>
    <layer id="176" name="Convolution__plus12_loc_pred_conv" type="Convolution" precision="FP16">
      <convolution_data stride-y="1" output="16" pad-y="1" kernel-x="3" group="1" kernel-y="3" stride-x="1" pad-x="1"/>
      <input>
        <port id="372">
          <dim>1</dim>
          <dim>1024</dim>
          <dim>19</dim>
          <dim>19</dim>
        </port>
      </input>
      <output>
        <port id="371">
          <dim>1</dim>
          <dim>16</dim>
          <dim>19</dim>
          <dim>19</dim>
        </port>
      </output>
      <weights offset="52936836" size="294912"/>
      <biases offset="53231748" size="32"/>
    </layer>
    <layer id="177" name="Permute_transpose0" type="Permute" precision="FP16">
      <data order="0,2,3,1"/>
      <input>
        <port id="374">
          <dim>1</dim>
          <dim>16</dim>
          <dim>19</dim>
          <dim>19</dim>
        </port>
      </input>
      <output>
        <port id="373">
          <dim>1</dim>
          <dim>19</dim>
          <dim>19</dim>
          <dim>16</dim>
        </port>
      </output>
    </layer>
    <layer id="178" name="Reshape_flatten1" type="Reshape" precision="FP16">
      <data num_axes="-1" dim="1,5776" axis="0"/>
      <input>
        <port id="376">
          <dim>1</dim>
          <dim>19</dim>
          <dim>19</dim>
          <dim>16</dim>
        </port>
      </input>
      <output>
        <port id="375">
          <dim>1</dim>
          <dim>5776</dim>
        </port>
      </output>
    </layer>
    <layer id="179" name="Convolution__plus15_loc_pred_conv" type="Convolution" precision="FP16">
      <convolution_data stride-y="1" output="24" pad-y="1" kernel-x="3" group="1" kernel-y="3" stride-x="1" pad-x="1"/>
      <input>
        <port id="378">
          <dim>1</dim>
          <dim>2048</dim>
          <dim>10</dim>
          <dim>10</dim>
        </port>
      </input>
      <output>
        <port id="377">
          <dim>1</dim>
          <dim>24</dim>
          <dim>10</dim>
          <dim>10</dim>
        </port>
      </output>
      <weights offset="53231780" size="884736"/>
      <biases offset="54116516" size="48"/>
    </layer>
    <layer id="180" name="Permute_transpose2" type="Permute" precision="FP16">
      <data order="0,2,3,1"/>
      <input>
        <port id="380">
          <dim>1</dim>
          <dim>24</dim>
          <dim>10</dim>
          <dim>10</dim>
        </port>
      </input>
      <output>
        <port id="379">
          <dim>1</dim>
          <dim>10</dim>
          <dim>10</dim>
          <dim>24</dim>
        </port>
      </output>
    </layer>
    <layer id="181" name="Reshape_flatten4" type="Reshape" precision="FP16">
      <data num_axes="-1" dim="1,2400" axis="0"/>
      <input>
        <port id="382">
          <dim>1</dim>
          <dim>10</dim>
          <dim>10</dim>
          <dim>24</dim>
        </port>
      </input>
      <output>
        <port id="381">
          <dim>1</dim>
          <dim>2400</dim>
        </port>
      </output>
    </layer>
    <layer id="182" name="Convolution_multi_feat_2_conv_3x3_relu_loc_pred_conv" type="Convolution" precision="FP16">
      <convolution_data stride-y="1" output="24" pad-y="1" kernel-x="3" group="1" kernel-y="3" stride-x="1" pad-x="1"/>
      <input>
        <port id="384">
          <dim>1</dim>
          <dim>512</dim>
          <dim>5</dim>
          <dim>5</dim>
        </port>
      </input>
      <output>
        <port id="383">
          <dim>1</dim>
          <dim>24</dim>
          <dim>5</dim>
          <dim>5</dim>
        </port>
      </output>
      <weights offset="54116564" size="221184"/>
      <biases offset="54337748" size="48"/>
    </layer>
    <layer id="183" name="Permute_transpose4" type="Permute" precision="FP16">
      <data order="0,2,3,1"/>
      <input>
        <port id="386">
          <dim>1</dim>
          <dim>24</dim>
          <dim>5</dim>
          <dim>5</dim>
        </port>
      </input>
      <output>
        <port id="385">
          <dim>1</dim>
          <dim>5</dim>
          <dim>5</dim>
          <dim>24</dim>
        </port>
      </output>
    </layer>
    <layer id="184" name="Reshape_flatten7" type="Reshape" precision="FP16">
      <data num_axes="-1" dim="1,600" axis="0"/>
      <input>
        <port id="388">
          <dim>1</dim>
          <dim>5</dim>
          <dim>5</dim>
          <dim>24</dim>
        </port>
      </input>
      <output>
        <port id="387">
          <dim>1</dim>
          <dim>600</dim>
        </port>
      </output>
    </layer>
    <layer id="185" name="Convolution_multi_feat_3_conv_3x3_relu_loc_pred_conv" type="Convolution" precision="FP16">
      <convolution_data stride-y="1" output="24" pad-y="1" kernel-x="3" group="1" kernel-y="3" stride-x="1" pad-x="1"/>
      <input>
        <port id="390">
          <dim>1</dim>
          <dim>256</dim>
          <dim>3</dim>
          <dim>3</dim>
        </port>
      </input>
      <output>
        <port id="389">
          <dim>1</dim>
          <dim>24</dim>
          <dim>3</dim>
          <dim>3</dim>
        </port>
      </output>
      <weights offset="54337796" size="110592"/>
      <biases offset="54448388" size="48"/>
    </layer>
    <layer id="186" name="Permute_transpose6" type="Permute" precision="FP16">
      <data order="0,2,3,1"/>
      <input>
        <port id="392">
          <dim>1</dim>
          <dim>24</dim>
          <dim>3</dim>
          <dim>3</dim>
        </port>
      </input>
      <output>
        <port id="391">
          <dim>1</dim>
          <dim>3</dim>
          <dim>3</dim>
          <dim>24</dim>
        </port>
      </output>
    </layer>
    <layer id="187" name="Reshape_flatten10" type="Reshape" precision="FP16">
      <data num_axes="-1" dim="1,216" axis="0"/>
      <input>
        <port id="394">
          <dim>1</dim>
          <dim>3</dim>
          <dim>3</dim>
          <dim>24</dim>
        </port>
      </input>
      <output>
        <port id="393">
          <dim>1</dim>
          <dim>216</dim>
        </port>
      </output>
    </layer>
    <layer id="188" name="Convolution_multi_feat_4_conv_3x3_relu_loc_pred_conv" type="Convolution" precision="FP16">
      <convolution_data stride-y="1" output="16" pad-y="1" kernel-x="3" group="1" kernel-y="3" stride-x="1" pad-x="1"/>
      <input>
        <port id="396">
          <dim>1</dim>
          <dim>256</dim>
          <dim>2</dim>
          <dim>2</dim>
        </port>
      </input>
      <output>
        <port id="395">
          <dim>1</dim>
          <dim>16</dim>
          <dim>2</dim>
          <dim>2</dim>
        </port>
      </output>
      <weights offset="54448436" size="73728"/>
      <biases offset="54522164" size="32"/>
    </layer>
    <layer id="189" name="Permute_transpose8" type="Permute" precision="FP16">
      <data order="0,2,3,1"/>
      <input>
        <port id="398">
          <dim>1</dim>
          <dim>16</dim>
          <dim>2</dim>
          <dim>2</dim>
        </port>
      </input>
      <output>
        <port id="397">
          <dim>1</dim>
          <dim>2</dim>
          <dim>2</dim>
          <dim>16</dim>
        </port>
      </output>
    </layer>
    <layer id="190" name="Reshape_flatten13" type="Reshape" precision="FP16">
      <data num_axes="-1" dim="1,64" axis="0"/>
      <input>
        <port id="400">
          <dim>1</dim>
          <dim>2</dim>
          <dim>2</dim>
          <dim>16</dim>
        </port>
      </input>
      <output>
        <port id="399">
          <dim>1</dim>
          <dim>64</dim>
        </port>
      </output>
    </layer>
    <layer id="191" name="Convolution_multi_feat_5_conv_3x3_relu_loc_pred_conv" type="Convolution" precision="FP16">
      <convolution_data stride-y="1" output="16" pad-y="1" kernel-x="3" group="1" kernel-y="3" stride-x="1" pad-x="1"/>
      <input>
        <port id="402">
          <dim>1</dim>
          <dim>128</dim>
          <dim>1</dim>
          <dim>1</dim>
        </port>
      </input>
      <output>
        <port id="401">
          <dim>1</dim>
          <dim>16</dim>
          <dim>1</dim>
          <dim>1</dim>
        </port>
      </output>
      <weights offset="54522196" size="36864"/>
      <biases offset="54559060" size="32"/>
    </layer>
    <layer id="192" name="Permute_transpose10" type="Permute" precision="FP16">
      <data order="0,2,3,1"/>
      <input>
        <port id="404">
          <dim>1</dim>
          <dim>16</dim>
          <dim>1</dim>
          <dim>1</dim>
        </port>
      </input>
      <output>
        <port id="403">
          <dim>1</dim>
          <dim>1</dim>
          <dim>1</dim>
          <dim>16</dim>
        </port>
      </output>
    </layer>
    <layer id="193" name="Reshape_flatten16" type="Reshape" precision="FP16">
      <data num_axes="-1" dim="1,16" axis="0"/>
      <input>
        <port id="406">
          <dim>1</dim>
          <dim>1</dim>
          <dim>1</dim>
          <dim>16</dim>
        </port>
      </input>
      <output>
        <port id="405">
          <dim>1</dim>
          <dim>16</dim>
        </port>
      </output>
    </layer>
    <layer id="194" name="Concat_multibox_loc_pred" type="Concat" precision="FP16">
      <concat_data axis="1"/>
      <input>
        <port id="408">
          <dim>1</dim>
          <dim>5776</dim>
        </port>
        <port id="409">
          <dim>1</dim>
          <dim>2400</dim>
        </port>
        <port id="410">
          <dim>1</dim>
          <dim>600</dim>
        </port>
        <port id="411">
          <dim>1</dim>
          <dim>216</dim>
        </port>
        <port id="412">
          <dim>1</dim>
          <dim>64</dim>
        </port>
        <port id="413">
          <dim>1</dim>
          <dim>16</dim>
        </port>
      </input>
      <output>
        <port id="407">
          <dim>1</dim>
          <dim>9072</dim>
        </port>
      </output>
    </layer>
    <layer id="195" name="PriorBox__plus12_anchors" type="PriorBox" precision="FP16">
      <data offset="0.5" step="15.789473684210526" step_w="0" step_h="0" flip="1" min_size="30.0" aspect_ratio="1.0,2.0,0.5" variance="0.100000,0.100000,0.200000,0.200000" clip="0" img_h="0" max_size="59.642999999999994" img_w="0" img_size="0"/>
      <input>
        <port id="415">
          <dim>1</dim>
          <dim>1024</dim>
          <dim>19</dim>
          <dim>19</dim>
        </port>
        <port id="416">
          <dim>1</dim>
          <dim>3</dim>
          <dim>300</dim>
          <dim>300</dim>
        </port>
      </input>
      <output>
        <port id="414">
          <dim>1</dim>
          <dim>2</dim>
          <dim>5776</dim>
        </port>
      </output>
    </layer>
    <layer id="196" name="PriorBox__plus15_anchors" type="PriorBox" precision="FP16">
      <data offset="0.5" step="30.0" step_w="0" step_h="0" flip="1" min_size="60.0" aspect_ratio="1.0,2.0,0.5,3.0,0.333333333333" variance="0.100000,0.100000,0.200000,0.200000" clip="0" img_h="0" max_size="110.97600000000003" img_w="0" img_size="0"/>
      <input>
        <port id="418">
          <dim>1</dim>
          <dim>2048</dim>
          <dim>10</dim>
          <dim>10</dim>
        </port>
        <port id="419">
          <dim>1</dim>
          <dim>3</dim>
          <dim>300</dim>
          <dim>300</dim>
        </port>
      </input>
      <output>
        <port id="417">
          <dim>1</dim>
          <dim>2</dim>
          <dim>2400</dim>
        </port>
      </output>
    </layer>
    <layer id="197" name="PriorBox_multi_feat_2_conv_3x3_relu_anchors" type="PriorBox" precision="FP16">
      <data offset="0.5" step="60.0" step_w="0" step_h="0" flip="1" min_size="111.0" aspect_ratio="1.0,2.0,0.5,3.0,0.333333333333" variance="0.100000,0.100000,0.200000,0.200000" clip="0" img_h="0" max_size="162.00729729729727" img_w="0" img_size="0"/>
      <input>
        <port id="421">
          <dim>1</dim>
          <dim>512</dim>
          <dim>5</dim>
          <dim>5</dim>
        </port>
        <port id="422">
          <dim>1</dim>
          <dim>3</dim>
          <dim>300</dim>
          <dim>300</dim>
        </port>
      </input>
      <output>
        <port id="420">
          <dim>1</dim>
          <dim>2</dim>
          <dim>600</dim>
        </port>
      </output>
    </layer>
    <layer id="198" name="PriorBox_multi_feat_3_conv_3x3_relu_anchors" type="PriorBox" precision="FP16">
      <data offset="0.5" step="100.0" step_w="0" step_h="0" flip="1" min_size="162.0" aspect_ratio="1.0,2.0,0.5,3.0,0.333333333333" variance="0.100000,0.100000,0.200000,0.200000" clip="0" img_h="0" max_size="212.8672222222222" img_w="0" img_size="0"/>
      <input>
        <port id="424">
          <dim>1</dim>
          <dim>256</dim>
          <dim>3</dim>
          <dim>3</dim>
        </port>
        <port id="425">
          <dim>1</dim>
          <dim>3</dim>
          <dim>300</dim>
          <dim>300</dim>
        </port>
      </input>
      <output>
        <port id="423">
          <dim>1</dim>
          <dim>2</dim>
          <dim>216</dim>
        </port>
      </output>
    </layer>
    <layer id="199" name="PriorBox_multi_feat_4_conv_3x3_relu_anchors" type="PriorBox" precision="FP16">
      <data offset="0.5" step="150.0" step_w="0" step_h="0" flip="1" min_size="213.0" aspect_ratio="1.0,2.0,0.5" variance="0.100000,0.100000,0.200000,0.200000" clip="0" img_h="0" max_size="263.7042253521127" img_w="0" img_size="0"/>
      <input>
        <port id="427">
          <dim>1</dim>
          <dim>256</dim>
          <dim>2</dim>
          <dim>2</dim>
        </port>
        <port id="428">
          <dim>1</dim>
          <dim>3</dim>
          <dim>300</dim>
          <dim>300</dim>
        </port>
      </input>
      <output>
        <port id="426">
          <dim>1</dim>
          <dim>2</dim>
          <dim>64</dim>
        </port>
      </output>
    </layer>
    <layer id="200" name="PriorBox_multi_feat_5_conv_3x3_relu_anchors" type="PriorBox" precision="FP16">
      <data offset="0.5" step="300.0" step_w="0" step_h="0" flip="1" min_size="264.0" aspect_ratio="1.0,2.0,0.5" variance="0.100000,0.100000,0.200000,0.200000" clip="0" img_h="0" max_size="314.83670454545455" img_w="0" img_size="0"/>
      <input>
        <port id="430">
          <dim>1</dim>
          <dim>128</dim>
          <dim>1</dim>
          <dim>1</dim>
        </port>
        <port id="431">
          <dim>1</dim>
          <dim>3</dim>
          <dim>300</dim>
          <dim>300</dim>
        </port>
      </input>
      <output>
        <port id="429">
          <dim>1</dim>
          <dim>2</dim>
          <dim>16</dim>
        </port>
      </output>
    </layer>
    <layer id="201" name="Concat_concat1" type="Concat" precision="FP16">
      <concat_data axis="2"/>
      <input>
        <port id="433">
          <dim>1</dim>
          <dim>2</dim>
          <dim>5776</dim>
        </port>
        <port id="434">
          <dim>1</dim>
          <dim>2</dim>
          <dim>2400</dim>
        </port>
        <port id="435">
          <dim>1</dim>
          <dim>2</dim>
          <dim>600</dim>
        </port>
        <port id="436">
          <dim>1</dim>
          <dim>2</dim>
          <dim>216</dim>
        </port>
        <port id="437">
          <dim>1</dim>
          <dim>2</dim>
          <dim>64</dim>
        </port>
        <port id="438">
          <dim>1</dim>
          <dim>2</dim>
          <dim>16</dim>
        </port>
      </input>
      <output>
        <port id="432">
          <dim>1</dim>
          <dim>2</dim>
          <dim>9072</dim>
        </port>
      </output>
    </layer>
    <layer id="202" name="DetectionOutput_detection" type="DetectionOutput" precision="FP16">
      <data background_label_id="0" num_classes="2" top_k="400" eta="1.000000" confidence_threshold="0.00999999977" keep_top_k="200" variance_encoded_in_target="0" code_type="caffe.PriorBoxParameter.CENTER_SIZE" share_location="1" nms_threshold="0.5"/>
      <input>
        <port id="440">
          <dim>1</dim>
          <dim>9072</dim>
        </port>
        <port id="441">
          <dim>1</dim>
          <dim>4536</dim>
        </port>
        <port id="442">
          <dim>1</dim>
          <dim>2</dim>
          <dim>9072</dim>
        </port>
      </input>
      <output>
        <port id="439">
          <dim>1</dim>
          <dim>1</dim>
          <dim>200</dim>
          <dim>7</dim>
        </port>
      </output>
    </layer>
  </layers>
  <edges>
    <edge from-layer="1" from-port="1" to-layer="2" to-port="3"/>
    <edge from-layer="2" from-port="2" to-layer="3" to-port="5"/>
    <edge from-layer="3" from-port="4" to-layer="4" to-port="7"/>
    <edge from-layer="4" from-port="6" to-layer="5" to-port="9"/>
    <edge from-layer="5" from-port="8" to-layer="6" to-port="11"/>
    <edge from-layer="6" from-port="10" to-layer="7" to-port="13"/>
    <edge from-layer="7" from-port="12" to-layer="8" to-port="15"/>
    <edge from-layer="8" from-port="14" to-layer="9" to-port="17"/>
    <edge from-layer="9" from-port="16" to-layer="10" to-port="19"/>
    <edge from-layer="10" from-port="18" to-layer="11" to-port="21"/>
    <edge from-layer="11" from-port="20" to-layer="12" to-port="23"/>
    <edge from-layer="7" from-port="12" to-layer="13" to-port="25"/>
    <edge from-layer="12" from-port="22" to-layer="14" to-port="27"/>
    <edge from-layer="13" from-port="24" to-layer="14" to-port="28"/>
    <edge from-layer="14" from-port="26" to-layer="15" to-port="30"/>
    <edge from-layer="15" from-port="29" to-layer="16" to-port="32"/>
    <edge from-layer="16" from-port="31" to-layer="17" to-port="34"/>
    <edge from-layer="17" from-port="33" to-layer="18" to-port="36"/>
    <edge from-layer="18" from-port="35" to-layer="19" to-port="38"/>
    <edge from-layer="19" from-port="37" to-layer="20" to-port="40"/>
    <edge from-layer="20" from-port="39" to-layer="21" to-port="42"/>
    <edge from-layer="21" from-port="41" to-layer="22" to-port="44"/>
    <edge from-layer="14" from-port="26" to-layer="22" to-port="45"/>
    <edge from-layer="22" from-port="43" to-layer="23" to-port="47"/>
    <edge from-layer="23" from-port="46" to-layer="24" to-port="49"/>
    <edge from-layer="24" from-port="48" to-layer="25" to-port="51"/>
    <edge from-layer="25" from-port="50" to-layer="26" to-port="53"/>
    <edge from-layer="26" from-port="52" to-layer="27" to-port="55"/>
    <edge from-layer="27" from-port="54" to-layer="28" to-port="57"/>
    <edge from-layer="28" from-port="56" to-layer="29" to-port="59"/>
    <edge from-layer="29" from-port="58" to-layer="30" to-port="61"/>
    <edge from-layer="22" from-port="43" to-layer="30" to-port="62"/>
    <edge from-layer="30" from-port="60" to-layer="31" to-port="64"/>
    <edge from-layer="31" from-port="63" to-layer="32" to-port="66"/>
    <edge from-layer="32" from-port="65" to-layer="33" to-port="68"/>
    <edge from-layer="33" from-port="67" to-layer="34" to-port="70"/>
    <edge from-layer="34" from-port="69" to-layer="35" to-port="72"/>
    <edge from-layer="35" from-port="71" to-layer="36" to-port="74"/>
    <edge from-layer="36" from-port="73" to-layer="37" to-port="76"/>
    <edge from-layer="32" from-port="65" to-layer="38" to-port="78"/>
    <edge from-layer="37" from-port="75" to-layer="39" to-port="80"/>
    <edge from-layer="38" from-port="77" to-layer="39" to-port="81"/>
    <edge from-layer="39" from-port="79" to-layer="40" to-port="83"/>
    <edge from-layer="40" from-port="82" to-layer="41" to-port="85"/>
    <edge from-layer="41" from-port="84" to-layer="42" to-port="87"/>
    <edge from-layer="42" from-port="86" to-layer="43" to-port="89"/>
    <edge from-layer="43" from-port="88" to-layer="44" to-port="91"/>
    <edge from-layer="44" from-port="90" to-layer="45" to-port="93"/>
    <edge from-layer="45" from-port="92" to-layer="46" to-port="95"/>
    <edge from-layer="46" from-port="94" to-layer="47" to-port="97"/>
    <edge from-layer="39" from-port="79" to-layer="47" to-port="98"/>
    <edge from-layer="47" from-port="96" to-layer="48" to-port="100"/>
    <edge from-layer="48" from-port="99" to-layer="49" to-port="102"/>
    <edge from-layer="49" from-port="101" to-layer="50" to-port="104"/>
    <edge from-layer="50" from-port="103" to-layer="51" to-port="106"/>
    <edge from-layer="51" from-port="105" to-layer="52" to-port="108"/>
    <edge from-layer="52" from-port="107" to-layer="53" to-port="110"/>
    <edge from-layer="53" from-port="109" to-layer="54" to-port="112"/>
    <edge from-layer="54" from-port="111" to-layer="55" to-port="114"/>
    <edge from-layer="47" from-port="96" to-layer="55" to-port="115"/>
    <edge from-layer="55" from-port="113" to-layer="56" to-port="117"/>
    <edge from-layer="56" from-port="116" to-layer="57" to-port="119"/>
    <edge from-layer="57" from-port="118" to-layer="58" to-port="121"/>
    <edge from-layer="58" from-port="120" to-layer="59" to-port="123"/>
    <edge from-layer="59" from-port="122" to-layer="60" to-port="125"/>
    <edge from-layer="60" from-port="124" to-layer="61" to-port="127"/>
    <edge from-layer="61" from-port="126" to-layer="62" to-port="129"/>
    <edge from-layer="62" from-port="128" to-layer="63" to-port="131"/>
    <edge from-layer="55" from-port="113" to-layer="63" to-port="132"/>
    <edge from-layer="63" from-port="130" to-layer="64" to-port="134"/>
    <edge from-layer="64" from-port="133" to-layer="65" to-port="136"/>
    <edge from-layer="65" from-port="135" to-layer="66" to-port="138"/>
    <edge from-layer="66" from-port="137" to-layer="67" to-port="140"/>
    <edge from-layer="67" from-port="139" to-layer="68" to-port="142"/>
    <edge from-layer="68" from-port="141" to-layer="69" to-port="144"/>
    <edge from-layer="69" from-port="143" to-layer="70" to-port="146"/>
    <edge from-layer="65" from-port="135" to-layer="71" to-port="148"/>
    <edge from-layer="70" from-port="145" to-layer="72" to-port="150"/>
    <edge from-layer="71" from-port="147" to-layer="72" to-port="151"/>
    <edge from-layer="72" from-port="149" to-layer="73" to-port="153"/>
    <edge from-layer="73" from-port="152" to-layer="74" to-port="155"/>
    <edge from-layer="74" from-port="154" to-layer="75" to-port="157"/>
    <edge from-layer="75" from-port="156" to-layer="76" to-port="159"/>
    <edge from-layer="76" from-port="158" to-layer="77" to-port="161"/>
    <edge from-layer="77" from-port="160" to-layer="78" to-port="163"/>
    <edge from-layer="78" from-port="162" to-layer="79" to-port="165"/>
    <edge from-layer="79" from-port="164" to-layer="80" to-port="167"/>
    <edge from-layer="72" from-port="149" to-layer="80" to-port="168"/>
    <edge from-layer="80" from-port="166" to-layer="81" to-port="170"/>
    <edge from-layer="81" from-port="169" to-layer="82" to-port="172"/>
    <edge from-layer="82" from-port="171" to-layer="83" to-port="174"/>
    <edge from-layer="83" from-port="173" to-layer="84" to-port="176"/>
    <edge from-layer="84" from-port="175" to-layer="85" to-port="178"/>
    <edge from-layer="85" from-port="177" to-layer="86" to-port="180"/>
    <edge from-layer="86" from-port="179" to-layer="87" to-port="182"/>
    <edge from-layer="87" from-port="181" to-layer="88" to-port="184"/>
    <edge from-layer="80" from-port="166" to-layer="88" to-port="185"/>
    <edge from-layer="88" from-port="183" to-layer="89" to-port="187"/>
    <edge from-layer="89" from-port="186" to-layer="90" to-port="189"/>
    <edge from-layer="90" from-port="188" to-layer="91" to-port="191"/>
    <edge from-layer="91" from-port="190" to-layer="92" to-port="193"/>
    <edge from-layer="92" from-port="192" to-layer="93" to-port="195"/>
    <edge from-layer="93" from-port="194" to-layer="94" to-port="197"/>
    <edge from-layer="94" from-port="196" to-layer="95" to-port="199"/>
    <edge from-layer="95" from-port="198" to-layer="96" to-port="201"/>
    <edge from-layer="88" from-port="183" to-layer="96" to-port="202"/>
    <edge from-layer="96" from-port="200" to-layer="97" to-port="204"/>
    <edge from-layer="97" from-port="203" to-layer="98" to-port="206"/>
    <edge from-layer="98" from-port="205" to-layer="99" to-port="208"/>
    <edge from-layer="99" from-port="207" to-layer="100" to-port="210"/>
    <edge from-layer="100" from-port="209" to-layer="101" to-port="212"/>
    <edge from-layer="101" from-port="211" to-layer="102" to-port="214"/>
    <edge from-layer="102" from-port="213" to-layer="103" to-port="216"/>
    <edge from-layer="103" from-port="215" to-layer="104" to-port="218"/>
    <edge from-layer="96" from-port="200" to-layer="104" to-port="219"/>
    <edge from-layer="104" from-port="217" to-layer="105" to-port="221"/>
    <edge from-layer="105" from-port="220" to-layer="106" to-port="223"/>
    <edge from-layer="106" from-port="222" to-layer="107" to-port="225"/>
    <edge from-layer="107" from-port="224" to-layer="108" to-port="227"/>
    <edge from-layer="108" from-port="226" to-layer="109" to-port="229"/>
    <edge from-layer="109" from-port="228" to-layer="110" to-port="231"/>
    <edge from-layer="110" from-port="230" to-layer="111" to-port="233"/>
    <edge from-layer="111" from-port="232" to-layer="112" to-port="235"/>
    <edge from-layer="104" from-port="217" to-layer="112" to-port="236"/>
    <edge from-layer="112" from-port="234" to-layer="113" to-port="238"/>
    <edge from-layer="113" from-port="237" to-layer="114" to-port="240"/>
    <edge from-layer="114" from-port="239" to-layer="115" to-port="242"/>
    <edge from-layer="112" from-port="234" to-layer="116" to-port="244"/>
    <edge from-layer="116" from-port="243" to-layer="117" to-port="246"/>
    <edge from-layer="117" from-port="245" to-layer="118" to-port="248"/>
    <edge from-layer="118" from-port="247" to-layer="119" to-port="250"/>
    <edge from-layer="119" from-port="249" to-layer="120" to-port="252"/>
    <edge from-layer="120" from-port="251" to-layer="121" to-port="254"/>
    <edge from-layer="121" from-port="253" to-layer="122" to-port="256"/>
    <edge from-layer="117" from-port="245" to-layer="123" to-port="258"/>
    <edge from-layer="122" from-port="255" to-layer="124" to-port="260"/>
    <edge from-layer="123" from-port="257" to-layer="124" to-port="261"/>
    <edge from-layer="124" from-port="259" to-layer="125" to-port="263"/>
    <edge from-layer="125" from-port="262" to-layer="126" to-port="265"/>
    <edge from-layer="126" from-port="264" to-layer="127" to-port="267"/>
    <edge from-layer="127" from-port="266" to-layer="128" to-port="269"/>
    <edge from-layer="128" from-port="268" to-layer="129" to-port="271"/>
    <edge from-layer="129" from-port="270" to-layer="130" to-port="273"/>
    <edge from-layer="130" from-port="272" to-layer="131" to-port="275"/>
    <edge from-layer="131" from-port="274" to-layer="132" to-port="277"/>
    <edge from-layer="124" from-port="259" to-layer="132" to-port="278"/>
    <edge from-layer="132" from-port="276" to-layer="133" to-port="280"/>
    <edge from-layer="133" from-port="279" to-layer="134" to-port="282"/>
    <edge from-layer="134" from-port="281" to-layer="135" to-port="284"/>
    <edge from-layer="135" from-port="283" to-layer="136" to-port="286"/>
    <edge from-layer="136" from-port="285" to-layer="137" to-port="288"/>
    <edge from-layer="137" from-port="287" to-layer="138" to-port="290"/>
    <edge from-layer="138" from-port="289" to-layer="139" to-port="292"/>
    <edge from-layer="139" from-port="291" to-layer="140" to-port="294"/>
    <edge from-layer="132" from-port="276" to-layer="140" to-port="295"/>
    <edge from-layer="140" from-port="293" to-layer="141" to-port="297"/>
    <edge from-layer="141" from-port="296" to-layer="142" to-port="299"/>
    <edge from-layer="142" from-port="298" to-layer="143" to-port="301"/>
    <edge from-layer="140" from-port="293" to-layer="144" to-port="303"/>
    <edge from-layer="144" from-port="302" to-layer="145" to-port="305"/>
    <edge from-layer="145" from-port="304" to-layer="146" to-port="307"/>
    <edge from-layer="146" from-port="306" to-layer="147" to-port="309"/>
    <edge from-layer="147" from-port="308" to-layer="148" to-port="311"/>
    <edge from-layer="148" from-port="310" to-layer="149" to-port="313"/>
    <edge from-layer="149" from-port="312" to-layer="150" to-port="315"/>
    <edge from-layer="147" from-port="308" to-layer="151" to-port="317"/>
    <edge from-layer="151" from-port="316" to-layer="152" to-port="319"/>
    <edge from-layer="152" from-port="318" to-layer="153" to-port="321"/>
    <edge from-layer="153" from-port="320" to-layer="154" to-port="323"/>
    <edge from-layer="154" from-port="322" to-layer="155" to-port="325"/>
    <edge from-layer="155" from-port="324" to-layer="156" to-port="327"/>
    <edge from-layer="156" from-port="326" to-layer="157" to-port="329"/>
    <edge from-layer="154" from-port="322" to-layer="158" to-port="331"/>
    <edge from-layer="158" from-port="330" to-layer="159" to-port="333"/>
    <edge from-layer="159" from-port="332" to-layer="160" to-port="335"/>
    <edge from-layer="160" from-port="334" to-layer="161" to-port="337"/>
    <edge from-layer="161" from-port="336" to-layer="162" to-port="339"/>
    <edge from-layer="162" from-port="338" to-layer="163" to-port="341"/>
    <edge from-layer="163" from-port="340" to-layer="164" to-port="343"/>
    <edge from-layer="161" from-port="336" to-layer="165" to-port="345"/>
    <edge from-layer="165" from-port="344" to-layer="166" to-port="347"/>
    <edge from-layer="166" from-port="346" to-layer="167" to-port="349"/>
    <edge from-layer="167" from-port="348" to-layer="168" to-port="351"/>
    <edge from-layer="168" from-port="350" to-layer="169" to-port="353"/>
    <edge from-layer="169" from-port="352" to-layer="170" to-port="355"/>
    <edge from-layer="170" from-port="354" to-layer="171" to-port="357"/>
    <edge from-layer="115" from-port="241" to-layer="172" to-port="359"/>
    <edge from-layer="143" from-port="300" to-layer="172" to-port="360"/>
    <edge from-layer="150" from-port="314" to-layer="172" to-port="361"/>
    <edge from-layer="157" from-port="328" to-layer="172" to-port="362"/>
    <edge from-layer="164" from-port="342" to-layer="172" to-port="363"/>
    <edge from-layer="171" from-port="356" to-layer="172" to-port="364"/>
    <edge from-layer="172" from-port="358" to-layer="173" to-port="366"/>
    <edge from-layer="173" from-port="365" to-layer="174" to-port="368"/>
    <edge from-layer="174" from-port="367" to-layer="175" to-port="370"/>
    <edge from-layer="112" from-port="234" to-layer="176" to-port="372"/>
    <edge from-layer="176" from-port="371" to-layer="177" to-port="374"/>
    <edge from-layer="177" from-port="373" to-layer="178" to-port="376"/>
    <edge from-layer="140" from-port="293" to-layer="179" to-port="378"/>
    <edge from-layer="179" from-port="377" to-layer="180" to-port="380"/>
    <edge from-layer="180" from-port="379" to-layer="181" to-port="382"/>
    <edge from-layer="147" from-port="308" to-layer="182" to-port="384"/>
    <edge from-layer="182" from-port="383" to-layer="183" to-port="386"/>
    <edge from-layer="183" from-port="385" to-layer="184" to-port="388"/>
    <edge from-layer="154" from-port="322" to-layer="185" to-port="390"/>
    <edge from-layer="185" from-port="389" to-layer="186" to-port="392"/>
    <edge from-layer="186" from-port="391" to-layer="187" to-port="394"/>
    <edge from-layer="161" from-port="336" to-layer="188" to-port="396"/>
    <edge from-layer="188" from-port="395" to-layer="189" to-port="398"/>
    <edge from-layer="189" from-port="397" to-layer="190" to-port="400"/>
    <edge from-layer="168" from-port="350" to-layer="191" to-port="402"/>
    <edge from-layer="191" from-port="401" to-layer="192" to-port="404"/>
    <edge from-layer="192" from-port="403" to-layer="193" to-port="406"/>
    <edge from-layer="178" from-port="375" to-layer="194" to-port="408"/>
    <edge from-layer="181" from-port="381" to-layer="194" to-port="409"/>
    <edge from-layer="184" from-port="387" to-layer="194" to-port="410"/>
    <edge from-layer="187" from-port="393" to-layer="194" to-port="411"/>
    <edge from-layer="190" from-port="399" to-layer="194" to-port="412"/>
    <edge from-layer="193" from-port="405" to-layer="194" to-port="413"/>
    <edge from-layer="112" from-port="234" to-layer="195" to-port="415"/>
    <edge from-layer="1" from-port="1" to-layer="195" to-port="416"/>
    <edge from-layer="140" from-port="293" to-layer="196" to-port="418"/>
    <edge from-layer="1" from-port="1" to-layer="196" to-port="419"/>
    <edge from-layer="147" from-port="308" to-layer="197" to-port="421"/>
    <edge from-layer="1" from-port="1" to-layer="197" to-port="422"/>
    <edge from-layer="154" from-port="322" to-layer="198" to-port="424"/>
    <edge from-layer="1" from-port="1" to-layer="198" to-port="425"/>
    <edge from-layer="161" from-port="336" to-layer="199" to-port="427"/>
    <edge from-layer="1" from-port="1" to-layer="199" to-port="428"/>
    <edge from-layer="168" from-port="350" to-layer="200" to-port="430"/>
    <edge from-layer="1" from-port="1" to-layer="200" to-port="431"/>
    <edge from-layer="195" from-port="414" to-layer="201" to-port="433"/>
    <edge from-layer="196" from-port="417" to-layer="201" to-port="434"/>
    <edge from-layer="197" from-port="420" to-layer="201" to-port="435"/>
    <edge from-layer="198" from-port="423" to-layer="201" to-port="436"/>
    <edge from-layer="199" from-port="426" to-layer="201" to-port="437"/>
    <edge from-layer="200" from-port="429" to-layer="201" to-port="438"/>
    <edge from-layer="175" from-port="369" to-layer="202" to-port="441"/>
    <edge from-layer="194" from-port="407" to-layer="202" to-port="440"/>
    <edge from-layer="201" from-port="432" to-layer="202" to-port="442"/>
  </edges>
  <pre-process reference-layer-name="data">
    <channel id="0">
      <mean value="0"/>
    </channel>
    <channel id="1">
      <mean value="0"/>
    </channel>
    <channel id="2">
      <mean value="0"/>
    </channel>
  </pre-process>
</net>
